saved_models/gesture_model.tflite (tflite, 139488 bytes, 10 tensors)

arith.constant f4 [32]
0	0xbdb78d89	-0.089625426
1	0xbcd59a06	-0.02607442
2	0x3dee259a	0.11628266
3	0xbd06eb8c	-0.03293948
4	0xbd1dca87	-0.038523223
5	0xbd22884f	-0.039680775
6	0xbd67ac14	-0.05656059
7	0x3d1b6c09	0.037944827
8	0x3d622d71	0.055219118
9	0x3d80b015	0.06283585
10	0xbdbce5b3	-0.09223499
11	0xbdc26ce6	-0.09493427
12	0x3cee42cd	0.029084587
13	0xbd8779a0	-0.06614995
14	0x3ddddaaf	0.10832726
15	0x3c28b5a8	0.0102972165
16	0x3cb79a5a	0.022412468
17	0xbda6f98f	-0.08153068
18	0xbcfa344d	-0.030542517
19	0xbcc3cbff	-0.023900984
20	0xbda6bfd1	-0.08142055
21	0x3dbd96da	0.09257288
22	0xbd858136	-0.06518786
23	0xbe065651	-0.13118865
24	0xbd060293	-0.0327173
25	0x3d0706a6	0.032965325
26	0xbd9b1e63	-0.07574155
27	0xbd63d2a5	-0.05562081
28	0xbc8af4d2	-0.016962443
29	0x3aff5b59	0.001948218
30	0xbb7400dc	-0.0037231958
31	0xbd28b6b0	-0.04118985

arith.constant1 f4 [32, 3, 3, 1]
0	0x3d212c92	0.039349146
1	0x3d391399	0.045184705
2	0x3d60cb15	0.054881174
3	0x3e1cda37	0.15317617
4	0xbda3173e	-0.079634175
5	0x3d79aa2f	0.060953315
6	0x3d735906	0.05941107
7	0x3d392a38	0.04520628
8	0x3de12abc	0.10994479
9	0xbd63fb69	-0.055659685
10	0x3d725aef	0.059168752
11	0x3ccbedad	0.024893606
12	0xbc2e34d6	-0.010632714
13	0x3e24d37f	0.16096304
14	0x3dc64aeb	0.09682258
15	0xbdc2cf16	-0.09512155
16	0x3c429925	0.011877333
17	0xbd9cbc95	-0.07653157
18	0xbe169363	-0.14704661
19	0xbe24d53f	-0.16096972
20	0x3dfa760c	0.12229547
21	0xbe0c57fb	-0.13705437
22	0xbc2122b3	-0.009834933
23	0xbdd23846	-0.102646396
24	0xbce0362a	-0.027369577
25	0xbc5e2454	-0.013558466
26	0xbe2314f5	-0.15925963
27	0xbda4429c	-0.08020517
28	0xbdf2dd7a	-0.118586496
29	0x3e2d1b8a	0.16905037
30	0x3de97567	0.11399346
31	0x3dd15fca	0.102233484
32	0xbbc04e58	-0.0058687143
33	0xbda37068	-0.07980424
34	0xbd76e147	-0.060273435
35	0x3e138820	0.14407396
36	0x3e1ead94	0.15495902
37	0x3cdc07b5	0.026859144
38	0xbd61a846	-0.05509212
39	0x3d909f2e	0.07061611
40	0x3e008e38	0.12554252
41	0x3e1d5c13	0.15367155
42	0x3d3f2938	0.04667017
43	0xbe163413	-0.14668302
44	0xbe3115f8	-0.17293537
45	0xbdfca0de	-0.123353705
46	0x3e1c1f99	0.15246429
47	0xbe01b340	-0.12666035
48	0x3bcb9270	0.006212525
49	0x3e062df7	0.13103472
50	0x3ddda295	0.10822026
51	0x3d840f30	0.06448209
52	0xbe085aa3	-0.13315825
53	0x3e108fe0	0.14117384
54	0x3c5af0be	0.0133630615
55	0x3d719029	0.058975372
56	0x3e1fdb9b	0.15611117
57	0x3d54e51f	0.05197632
58	0x3ddb01cf	0.10693704
59	0xbdc9e06e	-0.0985726
60	0xbd2ee752	-0.042701073
61	0xbdc0b52f	-0.09409558
62	0x3e30c77b	0.17263596
63	0x3da7483c	0.081680745
64	0xbd3de426	-0.046360157
65	0x3d4dd585	0.050252456
66	0x3c997749	0.018733637
67	0xbdbe2b4e	-0.092856035
68	0xbbf0d768	-0.007349897
69	0xbdde5013	-0.10855117
70	0x3d639ef8	0.055571526
71	0xbe1f5860	-0.15561056
72	0xbc6c13d7	-0.014409027
73	0x3d2d5cf9	0.042324994
74	0x3e3399d6	0.17539153
75	0x3d77a15c	0.06045662
76	0xbe27db93	-0.16392355
77	0xbdcf3604	-0.101177245
78	0xbe2c657f	-0.16835593
79	0xbe2d9a05	-0.16953285
80	0x3d1ee3fd	0.038791645
81	0x3e17177a	0.1475505
82	0x3ce4eb5c	0.02794426
83	0xbda2e73b	-0.0795426
84	0xbd317fb5	-0.04333468
85	0x3c0956a6	0.008382475
86	0xbde30d95	-0.11086575
87	0xbe32c844	-0.17459208
88	0xbe2778aa	-0.16354623
89	0x3d2cf7a5	0.04222836
90	0xbdd14aa6	-0.10219316
91	0x3db2c708	0.087293684
92	0x3d856b68	0.06514627
93	0x3d1034f0	0.035206735
94	0xbce1438f	-0.027498035
95	0x3db62623	0.08893993
96	0x3e1b9ec5	0.15197285
97	0x3d92156f	0.071329944
98	0x3dfffd83	0.124995254
99	0x3e1b9488	0.15193379
100	0x3d5f095a	0.054452278
101	0xbd160a78	-0.036631078
102	0x3da08f63	0.07839849
103	0x3e35919a	0.17731324
104	0x3e258bc4	0.16166598
105	0xbd3ea2a4	-0.046541825
106	0x3de6523c	0.11246154
107	0xbe106e5c	-0.14104599
108	0x3dad9da5	0.08477334
109	0x3c199129	0.009372988
110	0xbdc15920	-0.09440827
111	0x3dd7708d	0.10519514
112	0x3de6675c	0.11250183
113	0xbdcea734	-0.10090485
114	0xbde38a58	-0.11110371
115	0xbdbb955f	-0.0915935
116	0xbda3c412	-0.07996382
117	0xbdf69734	-0.120405585
118	0xbd0318a4	-0.03200592
119	0x3cb12e28	0.021628454
120	0x3e35a8e6	0.17740211
121	0x3dacd9f5	0.084400095
122	0x3db4c455	0.0882651
123	0x3c12742d	0.008938831
124	0xbcac87f2	-0.021060918
125	0x3e251600	0.16121674
126	0xbde9f6cb	-0.11424025
127	0xbddc1d1f	-0.10747742
128	0xbd0f30eb	-0.03495876
129	0xbe340a7d	-0.17582126
130	0xbe022014	-0.1270755
131	0x3d7919a5	0.060815472
132	0x3d3823dd	0.044956077
133	0xbdd642ea	-0.104619816
134	0xbce10745	-0.027469287
135	0xbd9de8ad	-0.07710395
136	0x3de0c4e8	0.10975057
137	0x3daf8be5	0.08571605
138	0xbd24d281	-0.040239815
139	0xbdc4c0a0	-0.09607053
140	0x3e22c77c	0.1589641
141	0xbc13f394	-0.0090302415
142	0xbc96a9a6	-0.018391442
143	0xbe30f997	-0.17282711
144	0x3b34b31e	0.0027572582
145	0x3d0ff68b	0.03514723
146	0xbdbd4f99	-0.09243698
147	0xbc779779	-0.0151117975
148	0xbd366bab	-0.044536274
149	0x3d60bec1	0.054869417
150	0xbce5f18a	-0.028069276
151	0x3b891c7a	0.004184303
152	0xbd1a34af	-0.0376479
153	0x3dfb7027	0.12277251
154	0x3d07d5ef	0.033163007
155	0x3e182187	0.1485654
156	0xbd3137c8	-0.043266088
157	0x3dfb1e76	0.12261669
158	0xbda1e12c	-0.07904276
159	0xbdeb9653	-0.115032814
160	0x3e181fdd	0.14855905
161	0x3ddc8bea	0.10768874
162	0xbbcb5b09	-0.0062059206
163	0x3dfd1da6	0.123591706
164	0xbab9bf5c	-0.001417141
165	0x3d41170b	0.047141116
166	0xbaa76b4c	-0.0012773066
167	0x3e2a928e	0.16657469
168	0xbe300df9	-0.1719283
169	0xbd5e2ed9	-0.054243896
170	0x3d8d88a5	0.069108285
171	0x3d564120	0.0523082
172	0x3da46357	0.0802676
173	0xbd19f4eb	-0.037587088
174	0xbe070036	-0.13183674
175	0x3d879e8b	0.066220365
176	0x3d8f5316	0.06998269
177	0x3bb0b5d5	0.00539277
178	0xbdb3b47d	-0.0877466
179	0x3de8fc3d	0.11376236
180	0xbd81b456	-0.063332245
181	0x3d10d965	0.035363574
182	0x3d0d19a4	0.03444828
183	0xbd194ca0	-0.03742659
184	0x3db5f522	0.08884646
185	0x3e13be7f	0.14428137
186	0x3d176b45	0.036967535
187	0x3dd2ab9b	0.102866374
188	0x3dc8a3fc	0.097969025
189	0xbe2b1d03	-0.16710286
190	0x3debc2be	0.115117535
191	0xbe0de886	-0.13858232
192	0x3d865216	0.065586254
193	0x3dcf2803	0.101150535
194	0xbe2ae134	-0.1668747
195	0xbd71b187	-0.059007194
196	0xbdb3dde6	-0.08782558
197	0xbe3228b5	-0.17398341
198	0x3e264f44	0.16241175
199	0x3e1851b4	0.14874917
200	0x3d7fd76b	0.062461298
201	0x3e0b0a7a	0.13578215
202	0xbdf3a6d6	-0.11897056
203	0x3da5f51a	0.0810339
204	0xbe2dd195	-0.1697448
205	0x3e02c414	0.1277011
206	0xbd87a79c	-0.06623766
207	0x3dc3689a	0.095414355
208	0x3e31571b	0.17318384
209	0xbca85413	-0.020547902
210	0x3e318700	0.17336655
211	0xbdc2f8df	-0.09520125
212	0x3df83263	0.121189855
213	0x3e1a997e	0.15097615
214	0x3be9a3d4	0.0071301255
215	0x3de0024c	0.10937938
216	0x3ca1af66	0.019736957
217	0x3b5e1e33	0.0033892512
218	0xbcb3456a	-0.021883685
219	0xbc97bab9	-0.018521653
220	0x3d7b7d2c	0.06139867
221	0x3d72e704	0.059302345
222	0xbb63f9dc	-0.003478638
223	0x3daf7395	0.085669674
224	0x391163e6	0.00013865493
225	0xbe2b7794	-0.16744834
226	0xbd0d372b	-0.03447644
227	0xbd9908c6	-0.074723765
228	0x3d305236	0.043047152
229	0xbdf1525f	-0.11783289
230	0xbd1f4c94	-0.03889139
231	0xbdfda6cb	-0.12385329
232	0x3e29a02e	0.1656501
233	0x3e33da2c	0.17563695
234	0xbd81b4a9	-0.06333286
235	0x3dda9e22	0.10674693
236	0x3e064f79	0.13116254
237	0x3d864401	0.065559395
238	0xbdabc341	-0.08386851
239	0x3e20b8b4	0.15695459
240	0x3dc32a30	0.09529531
241	0x3d74676c	0.059668943
242	0xbd725f04	-0.059172645
243	0x3d923aea	0.07140143
244	0xbe11bf38	-0.142331
245	0x3e055a4e	0.1302273
246	0xbe20269d	-0.1563973
247	0x3e0432e2	0.12910035
248	0xbd36aa70	-0.044596136
249	0x3e14a6cf	0.14516757
250	0x3dc93fca	0.0982662
251	0x3d999a63	0.0750015
252	0x3d3d3b66	0.046199225
253	0xbe2ed98f	-0.1707518
254	0xbe2a35f4	-0.16622144
255	0xbd77ed19	-0.06052885

arith.constant2 f4 [18]
0	0x3b3576ad	0.0027689144
1	0xbb2e70a0	-0.0026617423
2	0x3ad4483e	0.0016195846
3	0x39e86d02	0.00044331705
4	0x3a166070	0.0005736416
5	0x3afa5315	0.0019098247
6	0xbb1a83b8	-0.0023577046
7	0xb9c1f809	-0.0003699663
8	0x3a81111d	0.0009847019
9	0x3aaea92b	0.0013325562
10	0xbb216aeb	-0.0024630378
11	0xb9b1e3c7	-0.00033929778
12	0x3ae4792f	0.0017431135
13	0xba919d9d	-0.0011109594
14	0xbb0f973b	-0.0021910209
15	0x3b00a748	0.0019630957
16	0x3abc42dd	0.0014363189
17	0xbb0d5469	-0.0021565205

arith.constant4 f4 [256]
0	0xbde9ba8a	-0.11412533
1	0x3b5364fc	0.0032256236
2	0x3e85e70f	0.26152846
3	0x3db0e473	0.08637323
4	0x3d8100e4	0.06298998
5	0x3e1cda7f	0.15317725
6	0xbe917fe6	-0.2841789
7	0x3eab1e7e	0.334217
8	0xbe674c6a	-0.22587743
9	0x3c133821	0.00898555
10	0xbde97493	-0.11399188
11	0x3eb8c0eb	0.36084685
12	0xbebc1fdc	-0.36743057
13	0x3e00b12e	0.12567589
14	0xbea14782	-0.3149987
15	0x3e9ae723	0.30254468
16	0xbc036233	-0.008019018
17	0x3dd376e6	0.103254125
18	0xbea8c97a	-0.32966214
19	0x3dce391c	0.100694865
20	0x3d991f58	0.074766815
21	0xbed30b82	-0.41219717
22	0xbe67d599	-0.22640075
23	0xbdfcc7cc	-0.12342796
24	0x3e278ec3	0.16363053
25	0x3e9449d3	0.28962573
26	0xbdb446ba	-0.088025525
27	0xbdc08b4f	-0.09401571
28	0xbd9fc2df	-0.078008406
29	0x3dd08429	0.101814575
30	0xbe1d2185	-0.15344818
31	0xbe3dc898	-0.18533552
32	0x3e73d5b9	0.23811997
33	0xbedea72f	-0.43486926
34	0x3eab188a	0.3341716
35	0xbd9b387b	-0.07579132
36	0xbd675ba3	-0.056483876
37	0xbdc19993	-0.0945312
38	0xbd47c278	-0.048769444
39	0xbe4f53b7	-0.20246778
40	0x3e448180	0.19190025
41	0xbdcf641f	-0.101265185
42	0x3d252a18	0.040323347
43	0x3e3c8ed2	0.18413857
44	0x3dc447da	0.09584017
45	0x3e7265a2	0.23671582
46	0x3ebf7c6e	0.3739962
47	0xbe1e0ccb	-0.15434568
48	0x3e95483d	0.29156676
49	0x3eb615e5	0.3556358
50	0xbec97414	-0.39346373
51	0x3e2da5b5	0.16957743
52	0x3e8680a7	0.2627003
53	0xbe9d9b81	-0.30782703
54	0x3e938b13	0.28817043
55	0x3d00f93f	0.0314877
56	0xbeb4978b	-0.35271868
57	0x3df729f3	0.12068548
58	0xbe2521a0	-0.16126108
59	0x3eaac9a6	0.3335697
60	0x3f0572f2	0.5212852
61	0xbd906491	-0.070504315
62	0x3cd9943a	0.026559938
63	0x3d05fddc	0.032712802
64	0x3d5cfcd6	0.05395206
65	0xbe25c5ad	-0.16188689
66	0xbd2522b0	-0.040316284
67	0xbe970dec	-0.2950281
68	0xbe132353	-0.14368944
69	0xbd340e62	-0.04395903
70	0x3eaca8fa	0.3372267
71	0x3deb0f0e	0.11477481
72	0xbeac3b50	-0.33639002
73	0x3d1378dd	0.036003936
74	0xbd0dfc0b	-0.034664195
75	0x3e957a63	0.29194936
76	0xbdc476ac	-0.09592947
77	0x3c89baca	0.0168127
78	0xbe71a666	-0.23598632
79	0xbe1f40be	-0.15552041
80	0x3e7027b7	0.2345265
81	0x3e583d30	0.21117091
82	0x3e912cbf	0.2835445
83	0xbe8854f4	-0.26627314
84	0x3e91af60	0.28454113
85	0xbe3522e1	-0.17689086
86	0x3e8bf0b9	0.27332094
87	0xbdca50bf	-0.09878682
88	0xbe40f3e4	-0.18843037
89	0xbe77307f	-0.24139594
90	0x3e868f57	0.26281235
91	0xbe4ca04e	-0.19983026
92	0x3d81debd	0.06341312
93	0x3de067db	0.10957309
94	0x3e213247	0.15741836
95	0xbe0bb19f	-0.13641976
96	0x3e4513d8	0.19245851
97	0x3de40cbf	0.111352436
98	0xbd28ee39	-0.04124281
99	0x3edacf42	0.4273625
100	0x3d0db0f1	0.034592573
101	0xbdadd8e0	-0.08488631
102	0xbc160c2a	-0.009158174
103	0xbe0bbf04	-0.13647085
104	0x3e5b298e	0.2140257
105	0x3f109ac6	0.56486166
106	0xbd0a1a56	-0.033716522
107	0xbcbb11a1	-0.022835555
108	0xbe0b6393	-0.13612203
109	0x3d12eadc	0.03586851
110	0xbebce380	-0.3689232
111	0x3cf7e679	0.030261265
112	0x3d842493	0.064522885
113	0xbdc81be9	-0.097709484
114	0x3d989f2e	0.07452236
115	0xbce7bf14	-0.028289355
116	0xbe45f063	-0.19329982
117	0x3e15909c	0.14605945
118	0x3ddfd613	0.10929503
119	0x3df611e0	0.12015128
120	0xbe85a879	-0.26105097
121	0xbda6f6af	-0.0815252
122	0x3d081ce9	0.033230696
123	0xbe31ac99	-0.17350997
124	0xbea91e80	-0.33031082
125	0xbec3922e	-0.38197464
126	0xbc09758b	-0.008389841
127	0xbd4a0fc1	-0.04933143
128	0x3dd340a9	0.10315067
129	0x3e4f4c5f	0.20243977
130	0xbdc097a6	-0.09403925
131	0x3eb89fdb	0.3605946
132	0xbcbdf599	-0.0231884
133	0x3e960f2c	0.2930845
134	0xbf099331	-0.5374022
135	0xbebd1515	-0.36930147
136	0xbe4db987	-0.20090304
137	0xbe4de8a5	-0.20108278
138	0x3dd8c2a5	0.105840005
139	0x3da26acb	0.079305254
140	0x3e6bc146	0.23022947
141	0xbdb78925	-0.08961705
142	0xbe77516a	-0.24152151
143	0x3d08e08c	0.03341727
144	0x3f0298c9	0.5101438
145	0xbd2a0b6c	-0.0415148
146	0x3d214cb4	0.03937979
147	0x3e9bfe26	0.30467337
148	0xbef58756	-0.47954816
149	0xbe6cc5bd	-0.23122306
150	0x3d7bc2bd	0.061465014
151	0x3eecbf6e	0.462398
152	0xbe06faa5	-0.13181551
153	0xbc3d0938	-0.011537842
154	0x3ed034b3	0.40665206
155	0xbe5c4ce5	-0.21513708
156	0x3e168b3e	0.14701554
157	0xbd357aba	-0.044306494
158	0x3d82066b	0.063488804
159	0x3e8bfde8	0.27342153
160	0x3d653e9f	0.055967923
161	0x3e1fecb0	0.15617633
162	0x3e62e124	0.22156197
163	0x3e72f660	0.23726797
164	0x3e8bbd8b	0.27293047
165	0x3e125d9d	0.14293523
166	0x3e0385b5	0.12843974
167	0xbcdb4966	-0.026768398
168	0x3ca91cb9	0.020643579
169	0xbcd1095e	-0.025517162
170	0x3e80e109	0.25171688
171	0xbd656271	-0.056002084
172	0xbe84e5a7	-0.2595646
173	0xbe167ef7	-0.1469687
174	0xbd3ecb42	-0.04658056
175	0x3d076785	0.03305771
176	0xbda73f1e	-0.081663355
177	0xbddb2e55	-0.107021965
178	0x3e5e8a9a	0.2173256
179	0x3d8deb02	0.0692959
180	0x3ea2295d	0.31672183
181	0x3d95b3c9	0.07309682
182	0xbef8e58e	-0.48612636
183	0xbda0fd9c	-0.07860872
184	0xbe38df5c	-0.18053955
185	0xbf2b0c25	-0.66815406
186	0xbf1e9aa3	-0.61954707
187	0xbe9ff170	-0.3123889
188	0x3e4730d4	0.1945222
189	0x3e11ec1a	0.14250222
190	0x3eafbf5f	0.34325692
191	0xbdc1ec50	-0.09468901
192	0xbecc3086	-0.3988077
193	0x3db2bfc8	0.087279856
194	0xbe098b31	-0.13432004
195	0xbeb1d021	-0.34729102
196	0xbe9111fb	-0.2833403
197	0xbe798b19	-0.24369468
198	0x3f2bd1a5	0.6711677
199	0x3e6ad7c4	0.2293387
200	0x3da8bb55	0.08238856
201	0xbee2dafd	-0.443077
202	0x3e8737c6	0.2640974
203	0x3e9388df	0.28815362
204	0x3ea4053e	0.3203525
205	0x3ef1e912	0.4724813
206	0xbed87f37	-0.42284557
207	0xbd42e349	-0.047580037
208	0x3e241e45	0.16027172
209	0x3d996aa5	0.07491044
210	0x3e9d99ab	0.30781302
211	0x3ed93d0d	0.4242939
212	0x3ddaedb5	0.1068987
213	0x3e644258	0.22290933
214	0x3ef9f6e3	0.48821172
215	0xbd9e1b9b	-0.07720109
216	0xbf1b6601	-0.6070252
217	0xbeffb52d	-0.49942914
218	0xbe85b4be	-0.26114458
219	0xbe698ad7	-0.2280687
220	0x3e26478a	0.16238227
221	0xbda54e4f	-0.08071577
222	0xbeca778c	-0.39544332
223	0xbea75bb2	-0.32687145
224	0xbe1b1250	-0.15143704
225	0x3dad0928	0.08449012
226	0x3dc9182a	0.09819062
227	0xbddb91b3	-0.10721149
228	0xbd5c763f	-0.053823706
229	0xbdf5b265	-0.11996917
230	0x3e754bf6	0.23954758
231	0xbec6f924	-0.38861954
232	0x3e4c9394	0.19978172
233	0x3f02611a	0.50929415
234	0xbec3a091	-0.3820844
235	0x3e9bde5e	0.3044309
236	0x3e25e49b	0.16200487
237	0xbecdab9d	-0.40169993
238	0xbd316bfe	-0.04331588
239	0xbe8d6a16	-0.2762
240	0xbdaf92f7	-0.08572953
241	0xbd85cda7	-0.06533366
242	0xbeddc1d0	-0.4331193
243	0x3dfddfa5	0.123961724
244	0x3eaa8766	0.33306426
245	0xbd98af26	-0.07455282
246	0x3d00ed7f	0.031476494
247	0x3e8c531d	0.2740716
248	0x3cab4af1	0.020909758
249	0xbcdf40db	-0.027252605
250	0xbd5ec3b2	-0.05438585
251	0xbe3c477a	-0.18386641
252	0xbe6e2e05	-0.23259743
253	0x3eb7b707	0.35881826
254	0xbe966c4e	-0.29379505
255	0x3e4a8cb2	0.19780234

arith.constant5 f4 [128]
0	0xbd5ccd71	-0.05390686
1	0x3cde433a	0.027131665
2	0xbdd4f952	-0.103991166
3	0x3e04f111	0.12982585
4	0x3d30056e	0.04297393
5	0x3e54af5b	0.20770018
6	0x3e60bc18	0.21946752
7	0xbe776d43	-0.24162774
8	0x3e8e790e	0.27826732
9	0xbe00b4e5	-0.12569006
10	0xbe822606	-0.25419635
11	0x3e890782	0.2676354
12	0xbb610882	-0.0034337346
13	0xbe23e74b	-0.160062
14	0xbdac336c	-0.084082454
15	0x3d5e3457	0.054249134
16	0xbe2e5bed	-0.17027254
17	0xbc47779c	-0.012174513
18	0xbe5be738	-0.21474922
19	0xbe2bbc84	-0.16771132
20	0x3d5330f5	0.05156036
21	0xbccf70d0	-0.025322348
22	0xbda6eb4f	-0.0815035
23	0x3c0c75ae	0.008572979
24	0x3e064561	0.13112403
25	0x3d3890ec	0.045060083
26	0x3e06a780	0.13149834
27	0xbdadf7db	-0.0849454
28	0x3df9173e	0.12162636
29	0x3e585868	0.21127474
30	0xbe04f116	-0.12982592
31	0xbdfd14e5	-0.12357501
32	0xbddce9e6	-0.107868
33	0x3e3b29cc	0.18277663
34	0x3e4ce8fc	0.20010751
35	0xbea4afe0	-0.32165432
36	0xbe62702b	-0.22113101
37	0x3e139956	0.14413962
38	0xbc5edb3d	-0.013602075
39	0x3e1dbf2a	0.15404955
40	0x3e06063f	0.1308832
41	0x3e5ffd62	0.21874002
42	0xbeb33755	-0.35003152
43	0xbe9561f7	-0.29176304
44	0x3db3bc47	0.087761454
45	0x3e30e82a	0.17276064
46	0x3ea362da	0.31911355
47	0xbe8cb7d8	-0.27484012
48	0x3d9d2bd1	0.07674373
49	0x3e79817b	0.24365799
50	0x3e54b5c7	0.20772468
51	0x3e240df8	0.16020954
52	0x3e5eb8e0	0.21750212
53	0xbd6af063	-0.057358157
54	0x3cd2d035	0.025734046
55	0xbcaa64fd	-0.020800108
56	0xbd635009	-0.05549625
57	0x3d918d84	0.0710707
58	0xbe445637	-0.19173513
59	0xbe095f72	-0.13415316
60	0x3e160066	0.1464859
61	0xbd6ef9c4	-0.058343664
62	0xbc4d400e	-0.012527479
63	0xbcc49845	-0.023998389
64	0x3d57f9c6	0.052728437
65	0x3db2a234	0.08722344
66	0xbd77ca9d	-0.06049596
67	0x3e3bcf97	0.18340908
68	0x3d870c15	0.06594101
69	0x3cb63fdf	0.022247253
70	0x3d617353	0.055041622
71	0xbd8b1897	-0.067917995
72	0xbdcd465a	-0.10023184
73	0x3cc63185	0.024193535
74	0x3d21bad5	0.039484818
75	0x3e25e468	0.16200411
76	0xbcea68f1	-0.028614493
77	0x3d8ebeb0	0.069699645
78	0xbd8a5aa0	-0.067555666
79	0x3e1a8542	0.15089896
80	0xbdbd4ab8	-0.09242767
81	0xbc8da22b	-0.017289242
82	0x3e27381a	0.16329995
83	0x3dc31d2f	0.09527051
84	0xbda79d8b	-0.08184346
85	0x3e52dbd7	0.20591675
86	0xbeb47034	-0.35241854
87	0x3df0ee1c	0.11764166
88	0xbe2043c3	-0.15650849
89	0xbe0db40d	-0.13838215
90	0x3e75b9d9	0.23996677
91	0xbce97c0d	-0.028501535
92	0x3e46c89f	0.19412468
93	0xbe0b559c	-0.13606876
94	0xbeadd90a	-0.3395465
95	0xbe3ff2b0	-0.18744922
96	0x3ea8404e	0.3286156
97	0x3d9f71ab	0.07785352
98	0xbe2050e6	-0.1565586
99	0x3d3d6816	0.046241842
100	0xbd961caa	-0.07329686
101	0x3e000170	0.12500548
102	0x3ec8d254	0.39222968
103	0xbe292dd4	-0.16521388
104	0xbd107756	-0.035270058
105	0xbd118131	-0.035523597
106	0x3e9fd298	0.31215358
107	0xbe97d282	-0.29652792
108	0xbd7f67a7	-0.06235471
109	0x3d3a8fc5	0.045547266
110	0xbdd61f98	-0.10455245
111	0xbebfe619	-0.37480238
112	0xbe436222	-0.19080403
113	0x3da4ce4a	0.08047159
114	0xbcbc6f75	-0.023002366
115	0xbd3d2b0d	-0.046183635
116	0x3d622542	0.055211313
117	0x3e1f2c51	0.15544249
118	0xbcd4460a	-0.025912303
119	0xbd9fda7f	-0.07805347
120	0xbe4b04f8	-0.19826114
121	0x3caa68a7	0.020801855
122	0xbb0a42b1	-0.002109688
123	0x3d8910e3	0.06692674
124	0x3eaeea4f	0.34163138
125	0x3e2a5970	0.1663568
126	0x3ccf1d53	0.025282538
127	0x3dd9642f	0.10614812

arith.constant6 f4 [64]
0	0x3ce2c403	0.027681356
1	0xbbc10508	-0.0058904923
2	0xbd609985	-0.054833908
3	0x3db1bc90	0.086785436
4	0x3e821f95	0.2541472
5	0xbd39c595	-0.045354445
6	0xbe50e19c	-0.20398563
7	0xbe863092	-0.2620893
8	0x3ada04a4	0.0016633463
9	0xbd9e022b	-0.07715257
10	0xbc82d7fc	-0.01597213
11	0xbe5b9ebc	-0.21447271
12	0xbde5054d	-0.11182652
13	0xbe053ece	-0.1301224
14	0xbdb5bfb0	-0.08874452
15	0x3dd6060c	0.10450372
16	0xbe3e7c9d	-0.18602224
17	0x3cd278a0	0.025692284
18	0xbd4030b4	-0.046921447
19	0xbd595458	-0.053058952
20	0x3a9b278e	0.001183735
21	0x3db5122c	0.08841357
22	0x3baf28ec	0.0053454544
23	0xbc59cf5b	-0.013294066
24	0x3b57a234	0.0032903077
25	0x3e672720	0.22573519
26	0x3d8abc94	0.0677425
27	0xbe42b6e2	-0.19015077
28	0xbdb7f8db	-0.08983012
29	0x3e30c890	0.17264009
30	0x3e38ead0	0.18058324
31	0x3d228883	0.03968097
32	0xbe3390e4	-0.1753574
33	0x3e3bcc54	0.18339664
34	0x3d24140d	0.040058184
35	0xbd592352	-0.0530122
36	0xbe8550d6	-0.26038235
37	0x3d99101b	0.07473775
38	0x3e119d7d	0.14220233
39	0xbd505cfd	-0.05086993
40	0x3e8f91c8	0.2804091
41	0x3c2ebddb	0.010665382
42	0xbd793fac	-0.060851738
43	0x3e3b14a2	0.1826959
44	0x3de5cac2	0.112203136
45	0xbd4de7c7	-0.05026987
46	0x3da06dae	0.0783342
47	0x3c791648	0.015203066
48	0xbe517a72	-0.20456865
49	0x3e102e2c	0.14080113
50	0xbe8a35df	-0.26994225
51	0xbda5bc09	-0.080925055
52	0xbd863208	-0.065525115
53	0xbe004197	-0.1252502
54	0x3e0c0727	0.13674603
55	0x3dd7d4e8	0.105386555
56	0xbe572564	-0.21010357
57	0x3e98d253	0.29847965
58	0xbe07ef7f	-0.13274954
59	0xbd5a16cc	-0.053244397
60	0xbe20f33a	-0.15717784
61	0x3da75964	0.08171347
62	0x3e027592	0.12740162
63	0x3d536ec7	0.051619317

tfl.pseudo_qconst i1 [256, 128] scale=0.0012390404 zero_point=0
0	0x16	0.027258888
1	0xc1	-0.07805955
2	0xd2	-0.056995858
3	0x72	0.14125061
4	0x67	0.12762116
5	0x42	0.08177666
6	0xe7	-0.03097601
7	0x3e	0.07682051
8	0x8b	-0.14496772
9	0xb9	-0.087971866
10	0xb8	-0.08921091
11	0xa4	-0.113991715
12	0x95	-0.13257733
13	0x1f	0.038410254
14	0xc0	-0.079298586
15	0x28	0.049561616
16	0xa7	-0.1102746
17	0x7c	0.15364102
18	0x46	0.08673283
19	0x15	0.026019849
20	0x52	0.10160131
21	0xbf	-0.080537625
22	0x14	0.024780808
23	0x8e	-0.14125061
24	0xd8	-0.049561616
25	0xb3	-0.09540611
26	0xb8	-0.08921091
27	0x4c	0.09416707
28	0xc8	-0.06938626
29	0x5d	0.115230754
30	0xb6	-0.09168899
31	0x71	0.14001156
32	0xf0	-0.019824646
33	0x14	0.024780808
34	0xec	-0.024780808
35	0x55	0.105318435
36	0xba	-0.08673283
37	0x0a	0.012390404
38	0x1e	0.03717121
39	0xe1	-0.038410254
40	0x6d	0.13505541
41	0x25	0.045844495
42	0x2e	0.056995858
43	0x5b	0.112752676
44	0x6b	0.13257733
45	0x21	0.04088833
46	0x96	-0.13133828
47	0x7d	0.15488005
48	0x17	0.028497929
49	0xfa	-0.0074342424
50	0xf7	-0.011151364
51	0xb3	-0.09540611
52	0xef	-0.021063687
53	0x7a	0.15116292
54	0x5e	0.1164698
55	0x35	0.06566914
56	0x72	0.14125061
57	0xea	-0.027258888
58	0x60	0.11894788
59	0xf2	-0.017346565
60	0x97	-0.13009924
61	0x44	0.08425475
62	0x1e	0.03717121
63	0xa4	-0.113991715
64	0x68	0.1288602
65	0x30	0.05947394
66	0xe8	-0.02973697
67	0xff	-0.0012390404
68	0x6c	0.13381636
69	0xd1	-0.0582349
70	0x22	0.042127375
71	0x98	-0.1288602
72	0xd0	-0.05947394
73	0x04	0.0049561616
74	0x37	0.06814722
75	0x1e	0.03717121
76	0x58	0.10903555
77	0x28	0.049561616
78	0x12	0.022302728
79	0x3e	0.07682051
80	0xcc	-0.0644301
81	0x30	0.05947394
82	0xd6	-0.052039698
83	0xe3	-0.035932172
84	0xba	-0.08673283
85	0x90	-0.13877252
86	0xb2	-0.096645154
87	0x42	0.08177666
88	0x90	-0.13877252
89	0xa0	-0.11894788
90	0xd7	-0.050800655
91	0x9f	-0.12018692
92	0xd8	-0.049561616
93	0x86	-0.15116292
94	0x75	0.14496772
95	0xd5	-0.053278737
96	0xdc	-0.044605456
97	0xd6	-0.052039698
98	0x7b	0.15240197
99	0x5b	0.112752676
100	0xdc	-0.044605456
101	0x17	0.028497929
102	0x54	0.104079396
103	0xa8	-0.10903555
104	0x99	-0.12762116
105	0xcb	-0.06566914
106	0x71	0.14001156
107	0xe9	-0.028497929
108	0xf0	-0.019824646
109	0x07	0.008673282
110	0x2a	0.052039698
111	0x55	0.105318435
112	0x31	0.06071298
113	0x42	0.08177666
114	0xd1	-0.0582349
115	0x1c	0.03469313
116	0x48	0.08921091
117	0x2e	0.056995858
118	0xa1	-0.11770884
119	0x8a	-0.14620677
120	0x0d	0.016107526
121	0xd0	-0.05947394
122	0x3d	0.07558146
123	0xd5	-0.053278737
124	0x73	0.14248964
125	0x44	0.08425475
126	0x40	0.079298586
127	0xab	-0.105318435
128	0x6a	0.13133828
129	0x27	0.048322577
130	0x2d	0.05575682
131	0xed	-0.023541767
132	0x37	0.06814722
133	0x5c	0.113991715
134	0xa3	-0.115230754
135	0xea	-0.027258888
136	0xa8	-0.10903555
137	0x5c	0.113991715
138	0x94	-0.13381636
139	0x52	0.10160131
140	0xa7	-0.1102746
141	0xfd	-0.0037171212
142	0xa5	-0.112752676
143	0x63	0.122665
144	0x33	0.06319106
145	0x67	0.12762116
146	0x02	0.0024780808
147	0x51	0.10036227
148	0xd3	-0.05575682
149	0xf1	-0.018585606
150	0x84	-0.15364102
151	0x69	0.13009924
152	0xad	-0.10284036
153	0x5e	0.1164698
154	0x2c	0.054517776
155	0x4c	0.09416707
156	0xd7	-0.050800655
157	0x8e	-0.14125061
158	0x3b	0.07310338
159	0x00	0.0
160	0xc5	-0.07310338
161	0xdf	-0.04088833
162	0xea	-0.027258888
163	0x32	0.06195202
164	0xdf	-0.04088833
165	0xda	-0.047083534
166	0x86	-0.15116292
167	0xee	-0.022302728
168	0xb0	-0.09912323
169	0x4b	0.09292803
170	0x7c	0.15364102
171	0x8d	-0.14248964
172	0xe7	-0.03097601
173	0x27	0.048322577
174	0x9e	-0.12142596
175	0xab	-0.105318435
176	0xec	-0.024780808
177	0xee	-0.022302728
178	0x4c	0.09416707
179	0x4d	0.09540611
180	0xb2	-0.096645154
181	0xf6	-0.012390404
182	0x12	0.022302728
183	0x88	-0.14868484
184	0x17	0.028497929
185	0x53	0.10284036
186	0x4c	0.09416707
187	0x64	0.12390404
188	0xec	-0.024780808
189	0xa4	-0.113991715
190	0x61	0.12018692
191	0x49	0.09044995
192	0xe7	-0.03097601
193	0xa1	-0.11770884
194	0x71	0.14001156
195	0x89	-0.14744581
196	0xb9	-0.087971866
197	0x65	0.12514308
198	0xb4	-0.09416707
199	0x62	0.12142596
200	0x0f	0.018585606
201	0x2d	0.05575682
202	0x27	0.048322577
203	0x31	0.06071298
204	0x66	0.12638213
205	0xde	-0.042127375
206	0x36	0.06690818
207	0x7a	0.15116292
208	0xe3	-0.035932172
209	0xd7	-0.050800655
210	0xbe	-0.08177666
211	0xa6	-0.11151364
212	0x9a	-0.12638213
213	0xb3	-0.09540611
214	0x0c	0.014868485
215	0xb0	-0.09912323
216	0x13	0.023541767
217	0xbb	-0.08549379
218	0xdf	-0.04088833
219	0x1b	0.03345409
220	0x76	0.14620677
221	0xed	-0.023541767
222	0x9c	-0.12390404
223	0x56	0.10655747
224	0x18	0.02973697
225	0xec	-0.024780808
226	0xba	-0.08673283
227	0xa1	-0.11770884
228	0x48	0.08921091
229	0x97	-0.13009924
230	0xfe	-0.0024780808
231	0x3e	0.07682051
232	0xe0	-0.039649293
233	0xd0	-0.05947394
234	0x77	0.14744581
235	0x57	0.10779651
236	0x65	0.12514308
237	0xc9	-0.06814722
238	0xb1	-0.09788419
239	0x6e	0.13629444
240	0xd9	-0.048322577
241	0x44	0.08425475
242	0x87	-0.14992389
243	0xe6	-0.03221505
244	0x36	0.06690818
245	0x4c	0.09416707
246	0x3d	0.07558146
247	0xd9	-0.048322577
248	0x7c	0.15364102
249	0x07	0.008673282
250	0xcd	-0.06319106
251	0xe5	-0.03345409
252	0xfe	-0.0024780808
253	0x92	-0.13629444
254	0xd0	-0.05947394
255	0xc5	-0.07310338

tfl.pseudo_qconst1 i1 [128, 3, 3, 64]
0	0xd7	-41
1	0x0d	13
2	0x96	-106
3	0xcc	-52
4	0x9c	-100
5	0x3d	61
6	0x13	19
7	0xc1	-63
8	0x5a	90
9	0xf6	-10
10	0xe9	-23
11	0x45	69
12	0x99	-103
13	0xfc	-4
14	0x69	105
15	0xaf	-81
16	0x24	36
17	0x65	101
18	0xe9	-23
19	0x6a	106
20	0xbb	-69
21	0xdd	-35
22	0xe2	-30
23	0x5b	91
24	0x74	116
25	0xbc	-68
26	0x18	24
27	0x0e	14
28	0xa1	-95
29	0x3f	63
30	0x95	-107
31	0x97	-105
32	0x40	64
33	0x5c	92
34	0xb9	-71
35	0xab	-85
36	0x3c	60
37	0x06	6
38	0xa7	-89
39	0x67	103
40	0x13	19
41	0xc8	-56
42	0x41	65
43	0xb6	-74
44	0xe2	-30
45	0xfb	-5
46	0x9f	-97
47	0x85	-123
48	0x96	-106
49	0x44	68
50	0x59	89
51	0x20	32
52	0xa1	-95
53	0xe1	-31
54	0x2b	43
55	0x04	4
56	0x9b	-101
57	0x31	49
58	0x9f	-97
59	0x61	97
60	0x6e	110
61	0xd1	-47
62	0x8f	-113
63	0x8d	-115
64	0xba	-70
65	0xa3	-93
66	0xed	-19
67	0x21	33
68	0xfb	-5
69	0xb2	-78
70	0x3a	58
71	0xe1	-31
72	0xdf	-33
73	0xc2	-62
74	0x5d	93
75	0x58	88
76	0xd7	-41
77	0x24	36
78	0x73	115
79	0xe6	-26
80	0x95	-107
81	0x58	88
82	0x08	8
83	0xad	-83
84	0x06	6
85	0xc5	-59
86	0x0d	13
87	0x8a	-118
88	0xc3	-61
89	0x78	120
90	0x4a	74
91	0xf2	-14
92	0xdb	-37
93	0x51	81
94	0xc1	-63
95	0x5a	90
96	0x40	64
97	0x22	34
98	0xb1	-79
99	0x24	36
100	0xb1	-79
101	0x72	114
102	0x8e	-114
103	0xb5	-75
104	0xb4	-76
105	0x6e	110
106	0x4b	75
107	0xfc	-4
108	0xfd	-3
109	0x5d	93
110	0xb1	-79
111	0x73	115
112	0x87	-121
113	0x27	39
114	0x04	4
115	0x3c	60
116	0xb0	-80
117	0xf5	-11
118	0x1c	28
119	0x41	65
120	0x3c	60
121	0x6c	108
122	0x2c	44
123	0x78	120
124	0x83	-125
125	0x23	35
126	0xf8	-8
127	0x7e	126
128	0xa3	-93
129	0x07	7
130	0x6e	110
131	0x0b	11
132	0xdf	-33
133	0x0c	12
134	0x25	37
135	0x12	18
136	0x0e	14
137	0xeb	-21
138	0x12	18
139	0xce	-50
140	0x60	96
141	0xc0	-64
142	0xed	-19
143	0x6d	109
144	0x02	2
145	0xb6	-74
146	0x93	-109
147	0x21	33
148	0xc2	-62
149	0x18	24
150	0xc2	-62
151	0x98	-104
152	0xac	-84
153	0x09	9
154	0x7c	124
155	0x98	-104
156	0x65	101
157	0x5e	94
158	0x8b	-117
159	0x9c	-100
160	0xeb	-21
161	0xc1	-63
162	0x0a	10
163	0x3d	61
164	0xa8	-88
165	0x59	89
166	0x88	-120
167	0xf2	-14
168	0xfa	-6
169	0x3c	60
170	0xe8	-24
171	0xc4	-60
172	0x88	-120
173	0x4e	78
174	0xd9	-39
175	0x2e	46
176	0xb9	-71
177	0x1d	29
178	0x7a	122
179	0x2b	43
180	0x13	19
181	0x72	114
182	0x07	7
183	0xa5	-91
184	0x50	80
185	0xc8	-56
186	0x47	71
187	0xae	-82
188	0x06	6
189	0x29	41
190	0x65	101
191	0xb3	-77
192	0xfc	-4
193	0x02	2
194	0x9e	-98
195	0x33	51
196	0x79	121
197	0x07	7
198	0x4d	77
199	0x8a	-118
200	0x74	116
201	0x49	73
202	0x97	-105
203	0x1c	28
204	0xa9	-87
205	0x98	-104
206	0x4e	78
207	0xe1	-31
208	0x29	41
209	0xdc	-36
210	0x75	117
211	0xc2	-62
212	0x54	84
213	0x27	39
214	0x20	32
215	0xa7	-89
216	0x41	65
217	0xdd	-35
218	0xb3	-77
219	0x41	65
220	0xd2	-46
221	0x08	8
222	0x21	33
223	0x89	-119
224	0x8a	-118
225	0x22	34
226	0x65	101
227	0x49	73
228	0x18	24
229	0xe6	-26
230	0x4b	75
231	0x96	-106
232	0x19	25
233	0xf4	-12
234	0x0f	15
235	0x8f	-113
236	0x34	52
237	0x0f	15
238	0x9f	-97
239	0x55	85
240	0x5c	92
241	0xd0	-48
242	0x95	-107
243	0x19	25
244	0xf4	-12
245	0xb5	-75
246	0x1e	30
247	0xd9	-39
248	0x70	112
249	0xdb	-37
250	0x84	-124
251	0x5d	93
252	0x8b	-117
253	0xd0	-48
254	0x92	-110
255	0x3f	63

tfl.pseudo_qconst2 i1 [64, 3, 3, 32]
0	0xbf	-65
1	0xdf	-33
2	0xe6	-26
3	0xa1	-95
4	0xc9	-55
5	0x63	99
6	0xa9	-87
7	0xc2	-62
8	0xc2	-62
9	0xcf	-49
10	0x00	0
11	0x39	57
12	0xf1	-15
13	0xaf	-81
14	0x89	-119
15	0x47	71
16	0xd2	-46
17	0xbe	-66
18	0xc6	-58
19	0x50	80
20	0x1c	28
21	0x0e	14
22	0x63	99
23	0x43	67
24	0xd4	-44
25	0x98	-104
26	0xbf	-65
27	0x2a	42
28	0x2d	45
29	0x64	100
30	0x19	25
31	0xe7	-25
32	0x44	68
33	0x46	70
34	0xf3	-13
35	0x97	-105
36	0xf8	-8
37	0x6f	111
38	0x4e	78
39	0xfd	-3
40	0x0d	13
41	0x8a	-118
42	0x5c	92
43	0x87	-121
44	0x73	115
45	0xac	-84
46	0x3e	62
47	0xcb	-53
48	0x32	50
49	0xf5	-11
50	0x37	55
51	0x0b	11
52	0xd5	-43
53	0x3f	63
54	0x25	37
55	0x50	80
56	0xfc	-4
57	0x1d	29
58	0x9a	-102
59	0x0e	14
60	0x6e	110
61	0x72	114
62	0x38	56
63	0x65	101
64	0x0d	13
65	0x02	2
66	0x33	51
67	0x54	84
68	0xba	-70
69	0x77	119
70	0x47	71
71	0x3c	60
72	0x88	-120
73	0x36	54
74	0x0b	11
75	0x2a	42
76	0xe1	-31
77	0x51	81
78	0xa4	-92
79	0xdf	-33
80	0xde	-34
81	0x4f	79
82	0x56	86
83	0xe4	-28
84	0x89	-119
85	0xe2	-30
86	0xb8	-72
87	0xe8	-24
88	0x47	71
89	0x86	-122
90	0xf3	-13
91	0xfa	-6
92	0x88	-120
93	0x74	116
94	0x07	7
95	0x14	20
96	0x38	56
97	0xd1	-47
98	0x8f	-113
99	0xb1	-79
100	0x0a	10
101	0x54	84
102	0x1d	29
103	0x0d	13
104	0x4f	79
105	0x27	39
106	0xd5	-43
107	0xef	-17
108	0xef	-17
109	0x10	16
110	0x79	121
111	0xd2	-46
112	0xc0	-64
113	0x3d	61
114	0xe0	-32
115	0xc5	-59
116	0x3e	62
117	0xf5	-11
118	0x73	115
119	0x9e	-98
120	0x69	105
121	0x82	-126
122	0x7c	124
123	0xa3	-93
124	0x96	-106
125	0x8f	-113
126	0x53	83
127	0xf6	-10
128	0x7d	125
129	0x08	8
130	0x2c	44
131	0x81	-127
132	0xba	-70
133	0x16	22
134	0xab	-85
135	0xd0	-48
136	0x9b	-101
137	0x58	88
138	0x42	66
139	0x46	70
140	0x4f	79
141	0xcd	-51
142	0x46	70
143	0x7b	123
144	0xad	-83
145	0x28	40
146	0x3d	61
147	0xe0	-32
148	0xab	-85
149	0x33	51
150	0x5a	90
151	0xc6	-58
152	0xda	-38
153	0x34	52
154	0x7a	122
155	0x9f	-97
156	0xa5	-91
157	0x27	39
158	0x03	3
159	0x04	4
160	0xbd	-67
161	0xa4	-92
162	0x78	120
163	0xd1	-47
164	0xe3	-29
165	0xea	-22
166	0x93	-109
167	0x0b	11
168	0xe9	-23
169	0xbf	-65
170	0x0d	13
171	0xf2	-14
172	0xbc	-68
173	0xf4	-12
174	0x11	17
175	0x78	120
176	0xcf	-49
177	0xc4	-60
178	0x03	3
179	0x7a	122
180	0xb9	-71
181	0x66	102
182	0x3f	63
183	0x1a	26
184	0x58	88
185	0x89	-119
186	0xbe	-66
187	0x13	19
188	0x99	-103
189	0xfc	-4
190	0xe0	-32
191	0xef	-17
192	0x51	81
193	0xe4	-28
194	0xa7	-89
195	0x9c	-100
196	0x52	82
197	0xfe	-2
198	0x54	84
199	0xa7	-89
200	0x86	-122
201	0x84	-124
202	0xee	-18
203	0x7e	126
204	0xfb	-5
205	0xbb	-69
206	0x5a	90
207	0x8e	-114
208	0x9a	-102
209	0xe6	-26
210	0xee	-18
211	0xe2	-30
212	0x5d	93
213	0xbb	-69
214	0x5c	92
215	0x5c	92
216	0xdc	-36
217	0xae	-82
218	0x4b	75
219	0xfc	-4
220	0xc3	-61
221	0x33	51
222	0xd5	-43
223	0xae	-82
224	0xe0	-32
225	0xc0	-64
226	0x53	83
227	0x2e	46
228	0xa1	-95
229	0x0e	14
230	0xee	-18
231	0x70	112
232	0x8f	-113
233	0x8d	-115
234	0x26	38
235	0x5e	94
236	0xa7	-89
237	0xa4	-92
238	0x29	41
239	0x3e	62
240	0x7a	122
241	0x47	71
242	0x2a	42
243	0xbc	-68
244	0x8f	-113
245	0x9c	-100
246	0x58	88
247	0x2c	44
248	0xfb	-5
249	0x73	115
250	0x1b	27
251	0xb7	-73
252	0x19	25
253	0x3f	63
254	0x6a	106
255	0x90	-112

tfl.pseudo_qconst3 i1 [18, 256] scale=0.0011800482 zero_point=0
0	0x52	0.09676395
1	0x90	-0.1321654
2	0x32	0.05900241
3	0xea	-0.02596106
4	0x0e	0.016520675
5	0x51	0.09558391
6	0x8c	-0.1368856
7	0xe7	-0.029501205
8	0x97	-0.12390506
9	0xa1	-0.11210458
10	0xd2	-0.05428222
11	0xfa	-0.0070802895
12	0x99	-0.121544965
13	0x54	0.09912405
14	0xf8	-0.009440386
15	0xaa	-0.10148415
16	0x39	0.06726275
17	0x64	0.11800482
18	0x26	0.044841833
19	0xe0	-0.037761543
20	0xd0	-0.056642316
21	0xaf	-0.09558391
22	0x77	0.14042574
23	0x51	0.09558391
24	0x3b	0.069622844
25	0x85	-0.14514594
26	0x2a	0.049562026
27	0xcd	-0.06018246
28	0x4a	0.08732357
29	0x5a	0.10620434
30	0xc5	-0.069622844
31	0xf9	-0.008260338
32	0x1c	0.03304135
33	0x6a	0.12508512
34	0x86	-0.14396589
35	0xbb	-0.08142333
36	0x21	0.038941592
37	0xcc	-0.06136251
38	0x1c	0.03304135
39	0x8c	-0.1368856
40	0xa4	-0.10856444
41	0xde	-0.04012164
42	0xf8	-0.009440386
43	0x2f	0.055462267
44	0x1a	0.030681254
45	0x56	0.10148415
46	0xc5	-0.069622844
47	0xb8	-0.08496347
48	0x24	0.042481735
49	0x96	-0.12508512
50	0xb8	-0.08496347
51	0x94	-0.1274452
52	0xcf	-0.05782236
53	0x99	-0.121544965
54	0x86	-0.14396589
55	0x46	0.08260337
56	0xe6	-0.030681254
57	0x20	0.037761543
58	0x6c	0.1274452
59	0x6e	0.1298053
60	0x1e	0.035401445
61	0x67	0.121544965
62	0x16	0.02596106
63	0x29	0.048381977
64	0xcf	-0.05782236
65	0x8d	-0.13570555
66	0xab	-0.1003041
67	0xe5	-0.0318613
68	0x26	0.044841833
69	0x5a	0.10620434
70	0xab	-0.1003041
71	0x90	-0.1321654
72	0xc6	-0.0684428
73	0xb0	-0.094403856
74	0x15	0.024781013
75	0x3e	0.07316299
76	0xc2	-0.07316299
77	0xfb	-0.005900241
78	0x35	0.06254256
79	0x25	0.043661784
80	0xa8	-0.10384424
81	0xa9	-0.102664195
82	0xc7	-0.06726275
83	0xc2	-0.07316299
84	0xa5	-0.10738439
85	0x37	0.06490265
86	0xf3	-0.015340627
87	0x8b	-0.13806564
88	0x69	0.12390506
89	0xa8	-0.10384424
90	0xf9	-0.008260338
91	0x92	-0.1298053
92	0x49	0.08614352
93	0x9f	-0.11446468
94	0x1a	0.030681254
95	0xee	-0.021240868
96	0x00	0.0
97	0xd3	-0.05310217
98	0xc5	-0.069622844
99	0xf3	-0.015340627
100	0xeb	-0.024781013
101	0x1a	0.030681254
102	0x1a	0.030681254
103	0x88	-0.14160578
104	0x07	0.008260338
105	0x98	-0.12272502
106	0xe8	-0.028321158
107	0x36	0.0637226
108	0x9d	-0.116824776
109	0x52	0.09676395
110	0x1e	0.035401445
111	0xb1	-0.09322381
112	0xee	-0.021240868
113	0x85	-0.14514594
114	0x2c	0.05192212
115	0x6a	0.12508512
116	0x26	0.044841833
117	0x6c	0.1274452
118	0x14	0.023600964
119	0x8e	-0.1345255
120	0x6c	0.1274452
121	0xe0	-0.037761543
122	0x2f	0.055462267
123	0x59	0.10502429
124	0x42	0.077883184
125	0xb3	-0.09086371
126	0x05	0.005900241
127	0x1f	0.036581494
128	0x1d	0.0342214
129	0x59	0.10502429
130	0x25	0.043661784
131	0xe0	-0.037761543
132	0x31	0.05782236
133	0x9c	-0.11800482
134	0x01	0.0011800482
135	0xc8	-0.0660827
136	0x66	0.12036492
137	0xdd	-0.041301686
138	0x5a	0.10620434
139	0x31	0.05782236
140	0x0d	0.015340627
141	0x5f	0.11210458
142	0x22	0.04012164
143	0x44	0.08024328
144	0x7d	0.14750603
145	0x59	0.10502429
146	0x47	0.083783425
147	0xd8	-0.047201928
148	0x88	-0.14160578
149	0xe9	-0.02714111
150	0xcd	-0.06018246
151	0x9e	-0.11564472
152	0x03	0.0035401448
153	0x26	0.044841833
154	0xab	-0.1003041
155	0x2b	0.050742075
156	0xc0	-0.075523086
157	0x85	-0.14514594
158	0x95	-0.12626515
159	0x49	0.08614352
160	0x78	0.14160578
161	0xb2	-0.09204376
162	0xfa	-0.0070802895
163	0xad	-0.097944
164	0xc2	-0.07316299
165	0xe8	-0.028321158
166	0x64	0.11800482
167	0xaf	-0.09558391
168	0xb8	-0.08496347
169	0x01	0.0011800482
170	0x95	-0.12626515
171	0x31	0.05782236
172	0x0d	0.015340627
173	0x40	0.075523086
174	0xde	-0.04012164
175	0x25	0.043661784
176	0x8d	-0.13570555
177	0x3a	0.0684428
178	0xa3	-0.10974448
179	0x52	0.09676395
180	0x9b	-0.11918487
181	0x5d	0.10974448
182	0xb0	-0.094403856
183	0xfb	-0.005900241
184	0x2a	0.049562026
185	0xdf	-0.038941592
186	0xe5	-0.0318613
187	0x16	0.02596106
188	0xf0	-0.018880771
189	0x93	-0.12862526
190	0x36	0.0637226
191	0x71	0.13334545
192	0x8b	-0.13806564
193	0x53	0.097944
194	0xeb	-0.024781013
195	0x9c	-0.11800482
196	0xfb	-0.005900241
197	0x20	0.037761543
198	0x56	0.10148415
199	0xf6	-0.011800482
200	0xb8	-0.08496347
201	0x69	0.12390506
202	0x55	0.1003041
203	0xa4	-0.10856444
204	0x70	0.1321654
205	0xeb	-0.024781013
206	0xfb	-0.005900241
207	0x62	0.11564472
208	0x37	0.06490265
209	0x3b	0.069622844
210	0xc9	-0.06490265
211	0x3c	0.07080289
212	0xfb	-0.005900241
213	0x0c	0.014160579
214	0x55	0.1003041
215	0x64	0.11800482
216	0x6a	0.12508512
217	0x8c	-0.1368856
218	0xc1	-0.07434304
219	0x3f	0.07434304
220	0xf7	-0.010620434
221	0x9e	-0.11564472
222	0xbe	-0.077883184
223	0xb4	-0.08968367
224	0x96	-0.12508512
225	0xc6	-0.0684428
226	0x5c	0.10856444
227	0x97	-0.12390506
228	0x3f	0.07434304
229	0xce	-0.05900241
230	0xdc	-0.042481735
231	0xe4	-0.03304135
232	0xc5	-0.069622844
233	0x5f	0.11210458
234	0xd4	-0.05192212
235	0x71	0.13334545
236	0x76	0.13924569
237	0xdc	-0.042481735
238	0xe9	-0.02714111
239	0x3b	0.069622844
240	0x11	0.02006082
241	0xb3	-0.09086371
242	0x5c	0.10856444
243	0xb8	-0.08496347
244	0xdb	-0.043661784
245	0x44	0.08024328
246	0x94	-0.1274452
247	0x00	0.0
248	0x96	-0.12508512
249	0x48	0.08496347
250	0xf8	-0.009440386
251	0xc8	-0.0660827
252	0x54	0.09912405
253	0xb0	-0.094403856
254	0xd2	-0.05428222
255	0xd7	-0.048381977
