MLtrain/models_1/model.tflite (tflite, 238096 bytes, 8 tensors)

sequential/dense_1/MatMul;sequential/dense_1/Relu;sequential/dense_1/BiasAdd f4 [128]
1.4718707 0.756918 0.474108 1.2631236 0.891072 0.55861986 0.75145245 0.23007673
1.3967311 1.8482027 1.0514188 1.4595478 1.0779043 1.1359556 1.5258868 0.54241854
0.6442097 0.8639768 0.3623115 0.4939168 1.0275626 0.8250888 0.8482393 0.6837387
1.1311985 2.1150107 0.93042797 0.83922386 0.73171276 0.791807 1.2773857 0.9670249
2.0119977 1.517937 1.5913701 0.76438373 1.4102161 0.6019977 1.7632159 0.8320511
0.7366849 0.9284099 1.2676047 0.63500834 1.7687078 1.2587703 1.4261404 0.9093985
1.0701586 0.5494816 0.8909684 0.88342327 0.9488326 1.675046 0.66833156 0.8317549
1.202091 0.906381 1.9951786 1.0078486 1.0398608 1.5276017 0.54273295 1.1984458
0.9737588 0.814617 1.1577345 1.0657141 1.302166 0.5979106 0.8091825 1.809195
1.0037234 0.78285617 -0.2049992 0.08593605 0.93307376 1.2271075 1.6382972 1.0457455
1.1488076 1.0879545 1.0880476 0.5067974 0.67710036 0.8788682 0.9698439 0.45501974
1.0612403 1.8365259 0.84827816 0.4273801 1.1707457 2.1585858 1.7093492 1.4587716
1.3735198 0.9763148 0.98433065 1.294763 0.8718661 1.0979939 1.0535725 1.4448013
1.2760683 0.5174603 0.4042781 1.0351857 1.2048123 1.6991378 0.843954 1.9459118
0.8365714 1.2867818 1.0783405 0.6425622 0.0075136516 0.89249945 1.1294757 0.9668537
1.3093721 1.2790579 1.25184 0.864022 0.2862209 1.7193462 0.42133003 0.20975919
00000000: 4266 bc3f 61c5 413f 49be f23e 09ae a13f
00000010: 4b1d 643f b601 0f3f 305f 403f 3c99 6b3e
00000020: 16c8 b23f e891 ec3f e494 863f 76d2 ba3f
00000030: c5f8 893f fe66 913f 4250 c33f f1db 0a3f
00000040: edea 243f 952d 5d3f e580 b93e aae2 fc3e
00000050: 2c87 833f 0539 533f 3626 593f 8009 2f3f
00000060: 1dcb 903f 565c 0740 8730 6e3f 60d7 563f
00000070: 8751 3b3f ddb3 4a3f 6081 a33f f28e 773f
00000080: 92c4 0040 c24b c23f 04b2 cb3f a7ae 433f
00000090: f681 b43f 851c 1a3f 0fb1 e13f 4d01 553f
000000a0: 6297 3c3f 45ac 6d3f df40 a23f e88f 223f
000000b0: 0465 e23f 631f a13f c58b b63f 57ce 683f
000000c0: f5fa 883f d3aa 0c3f 8116 643f 0728 623f
000000d0: b1e6 723f e867 d63f c717 2b3f e4ed 543f
000000e0: 1ede 993f 9608 683f 0362 ff3f 2f01 813f
000000f0: 291a 853f 7488 c33f 8cf0 0a3f ac66 993f
00000100: 4248 793f bd8a 503f a530 943f 5269 883f
00000110: 60ad a63f ab10 193f 9626 4f3f b493 e73f
00000120: 027a 803f 4369 483f 4feb 51be 3dff af3d
00000130: ecdd 6e3f dc11 9d3f b9b3 d13f fdda 853f
00000140: 210c 933f 1842 8b3f 2545 8b3f 79bd 013f
00000150: 7356 2d3f 82fd 603f b147 783f 59f8 e83e
00000160: b9d6 873f 4813 eb3f c228 593f 91d1 da3e
00000170: ffda 953f 4526 0a40 f4cb da3f 07b9 ba3f
00000180: 7fcf af3f c4ef 793f 18fd 7b3f cbba a53f
00000190: 9e32 5f3f 108b 8c3f 77db 863f 40ef b83f
000001a0: 3556 a33f 4778 043f 8afd ce3e f780 843f
000001b0: 4a37 9a3f 597d d93f 5f0d 583f a313 f93f
000001c0: 8b29 563f 44b5 a43f 1007 8a3f f57e 243f
000001d0: 1435 f63b d87a 643f a992 903f b983 773f
000001e0: 8199 a73f 2bb8 a33f 4b3c a03f 8c30 5d3f
000001f0: 8c8b 923e 8913 dc3f 92b8 d73e 1dcb 563e

sequential/batch_normalization/batchnorm/mul_1;sequential/batch_normalization/batchnorm/add_1;sequential/dense_1/MatMul;sequential/dense_1/Relu;sequential/dense_1/BiasAdd f4 [128, 256]
1.2803404 0.056458917 4.7171845 2.0506437 -1.7396199 -4.9972773 -2.262165 -0.08605077
0.8903588 -1.5477978 -0.8467292 1.8968213 -3.3078039 -0.88731617 4.4225273 0.19548766
0.2676777 -1.2134578 -3.8632627 -0.536427 1.6083386 -0.5808662 1.1202437 4.895437
-7.900439 -6.5678945 8.078846 1.2242352 0.47722042 5.65604 -5.048296 2.1806192
0.44578347 4.469276 -1.3144715 5.565342 -0.5453496 -9.378496 -4.430212 0.31781495
-4.830438 -0.7655918 2.0079489 -7.382148 0.21495314 -0.38074228 -4.0851703 1.6766883
6.668025 -3.88921 1.7255121 0.42771378 0.48889646 -6.6843348 0.0648919 2.1307614
3.188448 -2.4824944 -2.3223388 -1.6681085 4.372524 -11.491448 1.2751878 -0.14191498
-4.7878284 2.4810107 1.6708736 -5.717499 1.6628412 6.362582 0.49303016 -2.1932495
-0.86867636 -2.1150718 4.4407706 -11.853699 -1.7223978 -4.163898 0.26850545 -3.8378887
1.2072004 -0.1319862 2.0818248 4.200893 -2.5359294 -2.6871147 1.1146792 1.8586931
-1.1039411 -7.02616 3.7695866 -3.896131 -3.3573081 -4.201818 -1.7540188 2.042218
-5.1402984 4.6578283 -2.671228 0.8093237 3.8453197 0.20819987 -4.443988 -2.3310452
0.43683442 -1.0799419 -0.72560287 1.5940905 3.620481 -0.68669343 -1.6232378 -4.191326
-5.2106304 -5.9222245 1.6924565 -9.206331 -3.60423 4.821855 -1.8238399 -1.6576438
3.075429 -3.0536976 0.08869768 5.24279 -1.4835197 5.191922 -1.5285857 1.1306391
0.14586692 -1.0629511 1.0591447 -1.1880012 1.716097 -0.29683113 5.3629265 1.0377976
0.22416751 -2.9141693 4.790705 7.798958 -0.32701936 -0.18078466 -2.6629786 -1.4491417
-3.1977475 0.65580225 6.7796335 -3.1750486 -0.58638996 -3.7833807 -2.3388934 -6.3687663
0.55456895 -9.250309 -3.109084 0.078912966 -0.28354234 0.33190036 -6.3629274 -3.8287125
-2.900047 -4.6413956 -1.5112176 1.6289216 -3.6873677 1.0118511 -3.0933774 -0.92224467
-1.2718459 7.3639994 10.858298 -3.0778508 5.199412 -0.07832291 -0.4169176 -3.7510026
5.3124585 -2.5973983 -6.1447034 0.04963301 -6.840572 -0.20450719 -0.29331788 -5.971356
0.61755073 -6.0702806 -0.26903018 -0.0033288894 -3.767716 6.686378 0.82465535 3.2826154
5.5715175 3.500268 -0.36512107 -1.6148082 -3.6131802 -2.995672 -4.0203867 3.9843447
-3.6681 0.067439646 -5.5113797 0.042478397 0.98746574 3.2417624 3.1211677 -3.3825283
1.2037414 -0.1506899 0.826315 -7.8042216 1.6042953 -4.9862943 -2.5403845 -0.3781175
-1.7769343 -4.056227 -0.68575996 -1.0879408 -5.90397 2.7821596 -0.58463764 -0.51912284
-5.8801446 -3.2742653 5.778238 -1.873908 -0.24538724 -0.18728507 -0.11266697 1.8490098
0.32895067 2.1414359 -0.3962452 -2.743234 1.7788881 -0.07091758 2.2323775 0.50876826
1.6563996 1.852373 4.863599 -4.1947618 -0.4287727 -3.2995422 -6.9386415 -3.9818592
8.424955 3.0721488 -3.4940171 1.9507662 -3.4176447 5.942678 -3.186234 -1.6747525
00000000: 32e2 a33f 7741 673d 2df3 9640 bf3d 0340
00000010: ddab debf b2e9 9fc0 50c7 10c0 633b b0bd
00000020: 8eee 633f 3d1e c6bf 3fc3 58bf 0acb f23f
00000030: 0fb3 53c0 2727 63bf 5885 8d40 eb2d 483e
00000040: 0d0d 893e 9652 9bbf b23f 77c0 4853 09bf
00000050: 0ade cd3f a6b3 14bf 2564 8f3f 6ba7 9c40
00000060: 65d0 fcc0 312c d2c0 f442 0141 bdb3 9c3f
00000070: 3c56 f43e 48fe b440 a48b a1c0 448f 0b40
00000080: bb3d e43e 4f04 8f40 9a40 a8bf 4817 b240
00000090: 089c 0bbf 520e 16c1 4cc4 8dc0 a4b8 a23e
000000a0: f392 9ac0 d3fd 43bf 3c82 0040 8e3a ecc0
000000b0: ad1c 5c3e a7f0 c2be b7b9 82c0 b99d d63f
000000c0: 7660 d540 d1e8 78c0 95dd dc3f 4dfd da3e
000000d0: a350 fa3e 12e6 d5c0 0be6 843d 655e 0840
000000e0: 880f 4c40 30e1 1ec0 33a1 14c0 9484 d5bf
000000f0: b7eb 8b40 f9dc 37c1 5b39 a33f 2952 11be
00000100: e435 99c0 e1c8 1e40 30df d53f c0f5 b6c0
00000110: fbd7 d43f 469a cb40 736e fc3e 335e 0cc0
00000120: 9361 5ebf 565d 07c0 cb1a 8e40 c0a8 3dc1
00000130: 8877 dcbf a73e 85c0 8c79 893e f89f 75c0
00000140: 8b85 9a3f 6427 07be 9e3c 0540 b76d 8640
00000150: ab4c 22c0 b0f9 2bc0 cfad 8e3f a8e9 ed3f
00000160: f14d 8dbf 4dd6 e0c0 e840 7140 365a 79c0
00000170: 23de 56c0 4b75 86c0 b083 e0bf b3b3 0240
00000180: 537d a4c0 ee0c 9540 66f5 2ac0 d72f 4f3f
00000190: b819 7640 5932 553e 2635 8ec0 d82f 15c0
000001a0: c3a8 df3e 893b 8abf 1cc1 39bf 280b cc3f
000001b0: f6b5 6740 24cb 2fbf 42c6 cfbf 581f 86c0
000001c0: 7cbd a6c0 dd82 bdc0 6aa2 d83f 224d 13c1
000001d0: b4ab 66c0 a34c 9a40 9673 e9bf ac2d d4bf
000001e0: d4d3 4440 c86f 43c0 21a7 b53d f0c4 a740
000001f0: f9e3 bdbf 3a24 a640 b2a8 c3bf c8b8 903f
00000200: 235e 153e c80e 88bf 0e92 873f 6c10 98bf
00000210: 11a9 db3f 40fa 97be 189d ab40 8dd6 843f
00000220: 2b8c 653e c081 3ac0 754d 9940 1091 f940
00000230: 156f a7be 9d1f 39be 3e6e 2ac0 7a7d b9bf
00000240: e5a7 4cc0 a8e2 273f c2f2 d840 ff33 4bc0
00000250: a71d 16bf e922 72c0 6eb0 15c0 efcc cbc0
00000260: 3bf8 0d3f 4401 14c1 3bfb 46c0 1f9d a13d
00000270: 762c 91be d8ee a93e 1a9d cbc0 a009 75c0
00000280: 5f9a 39c0 5086 94c0 946f c1bf 8180 d03f
00000290: d5fd 6bc0 5684 813f e5f9 45c0 3a18 6cbf
000002a0: d9cb a2bf e2a5 eb40 97bb 2d41 82fb 44c0
000002b0: 9561 a640 c367 a0bd 3976 d5be 6d10 70c0
000002c0: a9ff a940 c63b 26c0 69a1 c4c0 fc4b 4b3d
000002d0: f7e5 dac0 556a 51be c32d 96be 5915 bfc0
000002e0: ce17 1e3f bd3f c2c0 53be 89be 7f29 5abb
000002f0: 4222 71c0 cff6 d540 9d1c 533f 5f16 5240
00000300: df49 b240 6404 6040 26f1 babe 09b2 cebf
00000310: 583e 67c0 17b9 3fc0 02a7 80c0 81ff 7e40
00000320: 27c2 6ac0 cc1d 8a3d 395d b0c0 d4fd 2d3d
00000330: 8eca 7c3f 0979 4f40 36c1 4740 587b 58c0
00000340: 3314 9a3f 744e 1abe 6189 533f 2fbc f9c0
00000350: 8c59 cd3f b98f 9fc0 a995 22c0 9e98 c1be
00000360: 9572 e3bf 9dcc 81c0 f78d 2fbf a541 8bbf
00000370: 52ed bcc0 e70e 3240 d0aa 15bf 3ce5 04bf
00000380: 252a bcc0 908d 51c0 53e7 b840 38dc efbf
00000390: cb46 7bbe a8c7 3fbe f1bd e6bd 5aac ec3f
000003a0: 396c a83e 490d 0940 a7e0 cabe 2591 2fc0
000003b0: 9bb2 e33f 3c3d 91bd 46df 0e40 a33e 023f
000003c0: e704 d43f 8f1a ed3f 9aa2 9b40 7d3b 86c0
000003d0: 1888 dbbe b32b 53c0 5a09 dec0 c8d6 7ec0
000003e0: 9ecc 0641 169e 4440 fa9d 5fc0 b5b2 f93f
000003f0: b1ba 5ac0 6b2a be40 42eb 4bc0 4a5e d6bf

sequential/dense_2/MatMul;sequential/dense_2/Relu;sequential/dense_2/BiasAdd f4 [64]
1.726618 0.9246683 2.5375462 3.1579773 1.4043428 1.7335426 1.6749679 1.7799127
1.6337965 0.28241938 2.2476554 0.8120478 0.62064123 1.041726 1.6931671 1.9005532
2.8597405 2.9473274 0.109890014 1.9725406 2.0122828 0.4945216 0.7330264 0.7891358
2.3219268 1.2130152 0.39563972 -0.14312138 0.632276 0.6551384 3.4711947 2.0399132
1.5484087 1.8774054 2.3626018 3.74027 2.122688 1.6695883 0.3850787 1.9113705
0.6208663 2.2209442 1.0898218 1.5404913 2.3755112 1.1363578 0.8913043 2.0013518
1.853122 0.3257462 2.1785538 1.0577351 2.891948 2.9751518 1.8144679 2.082943
0.9806029 0.75334895 1.4304906 1.850893 0.42900774 1.8116714 1.4935769 1.7312737
00000000: d201 dd3f 10b7 6c3f 2867 2240 4d1c 4a40
00000010: 81c1 b33f b9e4 dd3f 5965 d63f 2ed4 e33f
00000020: 3e20 d13f 4699 903e 96d9 0f40 5de2 4f3f
00000030: 58e2 1e3f 4757 853f b3b9 d83f 5445 f33f
00000040: fd05 3740 03a1 3c40 040e e13d 367c fc3f
00000050: 3ec9 0040 ef31 fd3e 9ea7 3b3f ce04 4a3f
00000060: 739a 1440 1544 9b3f 4a91 ca3e 698e 12be
00000070: d7dc 213f 26b7 273f 0e28 5e40 f08d 0240
00000080: 4232 c63f d24e f03f de34 1740 9560 6f40
00000090: 1fda 0740 12b5 d53f 0929 c53e caa7 f43f
000000a0: 18f1 1e3f f323 0e40 487f 8b3f d22e c53f
000000b0: 6008 1840 2c74 913f 852c 643f 2616 0040
000000c0: 1a33 ed3f 35c8 a63e 6d6d 0b40 dd63 873f
000000d0: ad15 3940 e368 3e40 7c40 e83f f04e 0540
000000e0: cb08 7b3f 7adb 403f 511a b73f 10ea ec3f
000000f0: e7a6 db3e d9e4 e73f 872d bf3f 609a dd3f

sequential/batch_normalization_1/batchnorm/mul_1;sequential/batch_normalization_1/batchnorm/add_1;sequential/dense_2/MatMul;sequential/dense_2/Relu;sequential/dense_2/BiasAdd f4 [64, 128]
-1.3871524 0.06937572 -0.37311012 -1.0146017 -2.026965 -1.6786628 0.22435129 0.13564925
0.21900006 0.5754889 0.10042962 -0.1759144 -0.21075878 -0.038811784 -0.20606115 -0.09497327
0.28408816 -1.1986858 0.08649371 -0.09571524 0.086717755 0.36322978 0.7430396 -0.0029840847
0.064848155 0.88408387 0.2138608 0.14749919 -0.107705824 -0.067255415 -0.55398834 0.14215153
0.8310981 -0.35579333 -0.27574307 0.09346271 0.27863368 0.056796465 -0.15091859 0.51089966
0.30644143 0.1577819 0.49940616 0.1311328 0.76754564 -0.20965438 0.37769932 0.12909152
-0.007590029 0.37629417 0.55468845 -1.294427 -0.74000514 0.47191375 -0.72023356 -1.020286
-1.2767951 -0.079174705 0.37388897 0.8063734 0.20255359 -0.7797971 0.3676212 0.23504817
0.055512384 0.18327515 -0.6136784 -0.040429544 -0.549686 0.050431587 -0.60499996 0.5424966
-1.264645 0.02425235 0.0035942446 0.11645099 -0.33825293 0.13086228 -0.86273104 0.0700976
0.21680714 -0.33205613 -1.1539751 -0.45096523 -0.24152951 0.01988784 0.31783757 -0.33437192
0.0048288447 0.64997107 0.16214196 -0.43725297 0.13507123 0.22611168 -0.029613933 0.16079311
-1.5093453 -0.18607141 0.08887507 0.32329667 0.4462845 -0.31900692 -0.031245714 -1.876493
0.3173618 -1.2800643 0.046548404 0.028294718 -0.17124122 0.82345265 -1.0241395 -1.373445
-0.93121743 -0.023426095 -0.14508438 0.2649159 0.23642792 0.1573576 0.23985541 0.06452124
-0.6010407 0.4566477 0.15961458 -0.19172874 0.07968379 0.1176585 -0.07622225 0.15896922
0.06165276 -0.20916739 -0.91923845 0.25646675 0.26659334 -2.06816 -0.03556387 -0.018610815
-0.14924514 0.06425039 0.17381614 0.22466479 0.032000087 0.03891201 -0.52365494 0.23279612
0.21690504 -1.2236902 0.1533943 0.40796497 0.2451487 -0.0045053265 -0.84039193 0.5538163
-1.1705805 -0.29977697 -0.06825744 -0.00155683 0.5735558 0.1568353 0.13523221 0.5434736
-0.33756742 -0.04947633 0.52434313 -0.42209017 0.26682395 0.19908454 0.38920397 0.40782678
0.009260592 -0.018242918 0.5336346 -0.20984323 0.2776996 -0.022599483 0.45693022 -0.22100666
0.05226192 0.6844784 0.15435253 -1.1760608 0.36141908 -0.041762903 -1.1057211 -1.746339
0.42494762 -0.3456096 -0.90984094 0.6117492 0.6410219 -0.41771355 0.34108013 0.32968673
-0.5695964 0.091191754 -0.9644433 0.30473027 0.3523253 -0.043649424 -0.6060704 1.1825348
-0.32803532 0.1868147 -0.112872526 0.21543446 0.32994425 0.21344298 0.25607136 -0.65506756
0.23200925 -0.018809715 -1.4061385 -0.04698874 -0.067279905 -0.0487634 -0.8230797 -0.9404327
-0.055003356 1.3732296 -0.6190823 -0.225446 0.096301995 -0.24602653 0.073361374 0.16985881
0.14788234 0.03017289 -1.2094206 -0.025363281 -0.09308113 0.027676653 0.1231594 -0.29260752
0.008751226 -2.1041143 -0.25996587 -0.062163267 0.55499697 -1.1467764 -0.07636386 0.51547784
-1.6060905 -0.6448932 0.4954315 -0.40247282 -0.37057614 0.056805346 0.26021442 -0.33875397
-2.8516831 0.27887407 -0.9239482 -1.3796635 0.2584443 0.08581651 -0.0043191644 0.23201765
00000000: 368e b1bf dc14 8e3d 4a08 bfbe 78de 81bf
00000010: cbb9 01c0 6cde d6bf 58bc 653e a3e7 0a3e
00000020: 8d41 603e 3e53 133f 0bae cd3d e822 34be
00000030: 26d1 57be 1bf9 1ebd b201 53be 5981 c2bd
00000040: 0174 913e 896e 99bf 9d23 b13d 5a06 c4bd
00000050: 1499 b13d 41f9 b93e d837 3e3f a290 43bb
00000060: 1ccf 843d 5253 623f 53fe 5a3e 070a 173e
00000070: df94 dcbd 35bd 89bd 2ed2 0dbf 2c90 113e
00000080: d8c2 543f 8b2a b6be 322e 8dbe 6169 bf3d
00000090: 13a9 8e3e 69a3 683d 678a 1abe 52ca 023f
000000a0: e4e5 9c3e 9491 213e 2ab2 ff3e ad47 063e
000000b0: df7d 443f a3af 56be ce61 c13e 9130 043e
000000c0: c7b5 f8bb a1a9 c03e 1000 0e3f c9af a5bf
000000d0: fa70 3dbf ae9e f13e 3a61 38bf bb98 82bf
000000e0: 066e a3bf 5926 a2bd 606e bf3e 7d6e 4e3f
000000f0: 356a 4f3e c8a0 47bf d938 bc3e 78b0 703e
00000100: f460 633d 7bac 3b3e 071a 1dbf 7399 25bd
00000110: 39b8 0cbf 5a91 4e3d 47e1 1abf 0fe1 0a3f
00000120: e3df a1bf ddac c63c 6b8d 6b3b db7d ee3d
00000130: 7d2f adbe c300 063e f1db 5cbf 558f 8f3d
00000140: b102 5e3e 4303 aabe 75b5 93bf eae4 e6be
00000150: 8353 77be d3eb a23c 9bbb a23e cc32 abbe
00000160: 493b 9e3b 8164 263f 8b08 263e 9fdf dfbe
00000170: 1d50 0a3e d289 673e eb98 f2bc f3a6 243e
00000180: 3a32 c1bf 8189 3ebe 2204 b63d 2487 a53e
00000190: 677f e43e e054 a3be 03f7 ffbc ec30 f0bf
000001a0: 3f7d a23e 26d9 a3bf 8aa9 3e3d 53ca e73c
000001b0: dc59 2fbe cbcd 523f 0117 83bf 0ccd afbf
000001c0: 4464 6ebf 15e8 bfbc 0091 14be 0fa3 873e
000001d0: 291a 723e 5a22 213e a89c 753e b623 843d
000001e0: cedd 19bf bacd e93e 0172 233e 8a54 44be
000001f0: 4131 a33d f1f6 f03d 691a 9cbd d4c8 223e
00000200: 9b87 7c3d fa2f 56be 3653 6bbf 9c4f 833e
00000210: ec7e 883e bc5c 04c0 6cab 11bd b575 98bc
00000220: b8d3 18be b595 833d dcfc 313e 870e 663e
00000230: 8612 033d 3362 1f3d 400e 06bf 1b62 6e3e
00000240: 5b1c 5e3e e1a1 9cbf 6513 1d3e c9e0 d03e
00000250: 4308 7b3e 6ba1 93bb ed23 57bf e8c6 0d3f
00000260: 95d5 95bf 5e7c 99be 8fca 8bbd 8c0e ccba
00000270: 8ed4 123f 6f99 203e 507a 0a3e 1621 0b3f
00000280: a3d5 acbe b1a7 4abd 5a3b 063f 341c d8be
00000290: 269d 883e d1dc 4b3e be45 c73e acce d03e
000002a0: bdb9 173c 2c72 95bc 479c 083f 25e1 56be
000002b0: a42e 8e3e 8d22 b9bc c2f2 e93e 924f 62be
000002c0: 9810 563d fa39 2f3f 970e 1e3e 2989 96bf
000002d0: ec0b b93e 940f 2bbd 4588 8dbf 0988 dfbf
000002e0: bc92 d93e bef3 b0be 56eb 68bf 989b 1c3f
000002f0: 031a 243f 8dde d5be 0ea2 ae3e b3cc a83e
00000300: 12d1 11bf bec2 ba3d c2e5 76bf 9b05 9c3e
00000310: fb63 b43e bdc9 32bd 6e27 1bbf 4d5d 973f
00000320: 3ff4 a7be 5a4c 3f3e b629 e7bd da9a 5c3e
00000330: 74ee a83e cc90 5a3e c91b 833e 82b2 27bf
00000340: d593 6d3e d516 9abc 59fc b3bf 4477 40bd
00000350: 0cca 89bd 22bc 47bd 5ab5 52bf 33c0 70bf
00000360: 334b 61bd fdc5 af3f 2d7c 1ebf 51db 66be
00000370: fb39 c53d 61ee 7bbe 7d3e 963d 78ef 2d3e
00000380: 786e 173e 232d f73c 4bce 9abf a8c6 cfbc
00000390: 52a1 bebd 26ba e23c ff3a fc3d a7d0 95be
000003a0: 4d61 0f3c cfa9 06c0 3f1a 85be e99e 7ebd
000003b0: 4814 0e3f 92c9 92bf a864 9cbd 5bf6 033f
000003c0: 6094 cdbf b917 25bf 33a9 fd3e eb10 cebe
000003d0: 28bc bdbe b9ac 683d d33a 853e 2971 adbe
000003e0: fa81 36c0 95c8 8e3e df87 6cbf d098 b0bf
000003f0: d052 843e 91c0 af3d c787 8dbb 0996 6d3e

sequential/dense_3/MatMul;sequential/dense_3/BiasAdd f4 [18]
0.8481647 0.9658981 0.58963096 0.66473377 0.81128365 0.754729 0.6262894 0.84750885
0.45250234 0.6511791 0.64926946 0.8122937 0.6135436 0.5125271 0.42724237 0.89375085
0.712109 0.6381558
00000000: 5221 593f 1945 773f 0ef2 163f fe2b 2a3f
00000010: 49b0 4f3f eb35 413f 8154 203f 57f6 583f
00000020: 63ae e73e acb3 263f 8636 263f 7bf2 4f3f
00000030: 3211 1d3f fa34 033f 83bf da3e dbcc 643f
00000040: c74c 363f 2e5e 233f

sequential/batch_normalization_2/batchnorm/mul_1;sequential/batch_normalization_2/batchnorm/add_1;sequential/dense_3/MatMul;sequential/dense_3/BiasAdd f4 [18, 64]
-0.15275279 -0.06420168 -0.03269687 -0.025106521 -0.15205735 -0.08120773 0.038069177 -0.12048196
0.015436251 0.17054117 -0.064132884 -0.03455038 0.01621342 -0.11807594 -0.030250221 -0.17340407
-0.05169859 -0.1383743 -0.12327942 -0.09413774 -0.1493033 0.26987198 0.1931741 -0.15114568
-0.10876306 0.19112085 -0.03891411 -0.08226361 0.0774601 -0.04501885 -0.08563154 -0.037153754
0.20687382 -0.10732312 -0.059642904 -0.10849207 0.09335917 -0.05507921 -0.17215718 0.22347926
-0.01198706 -0.10038785 0.11697537 0.18218882 -0.10473145 -0.13120133 -0.06846966 0.18940753
-0.17573501 5.509249e-06 0.023170887 0.23273021 0.019654395 -0.103547834 -0.09685805 -0.07839354
-0.09796072 0.03168999 -0.03695462 -0.023012575 0.23629512 -0.041293774 0.16576774 -0.1406496
-0.10031928 -0.053771686 0.10344219 0.18401158 -0.007516209 -0.096598364 0.09805973 -0.1670919
-0.10434819 -0.07400693 -0.121267974 -0.20987758 -0.08590019 -0.042491004 -0.11844898 -0.080107495
-0.091988675 0.15240318 -0.14971295 0.22208452 -0.19680348 -0.08298972 0.23893526 -0.12212084
0.1062082 0.012341197 0.19012146 -0.09127961 0.022640359 -0.118355885 0.21645196 -0.015588264
-0.09461426 -0.12028435 -0.09110617 0.12131804 0.12172162 -0.15501171 -0.11139297 -0.0455392
0.18245575 -0.22696783 -0.11655569 0.015459325 0.047770422 0.089875124 -0.30971307 0.106200814
-0.14664117 -0.044281963 0.14317833 -0.09390904 -0.070967585 -0.1002892 -0.17420775 -0.20474201
-0.15789402 -0.069634885 -0.10782938 0.19616602 -0.10923998 -0.10927884 0.01997811 0.08434134
-0.11594856 0.09900392 -0.1320428 -0.04073225 0.15095139 -0.09308325 -0.05682321 -0.16042218
0.08260525 -0.11467636 -0.13407296 0.026416872 0.13160984 0.030507134 -0.14074357 0.13503537
0.11184074 0.12333805 -0.22447501 0.19358459 -0.11622488 -0.028964998 0.03746128 -0.1680815
0.10149663 0.14124705 -0.08236363 -0.1365641 0.110340275 -0.08259534 -0.093757294 0.13607423
-0.024939306 0.116585225 0.05051175 0.08160631 -0.0484138 -0.13243228 -0.094957225 -0.13399825
-0.20103873 -0.18950371 -0.1183919 -0.08323564 -0.09904648 0.17779583 -0.18437366 -0.103735276
-0.1331733 -0.0012354122 -0.02308503 -0.054349285 0.13544793 0.075731725 -0.14623475 -0.16397321
-0.057383854 -0.12319779 -0.019817304 -0.029967465 0.0686951 0.06011993 -0.058440305 -0.13363026
-0.1169259 -0.13942787 0.14014807 0.10158812 -0.01819372 0.15917209 -0.11080931 -0.093113884
-0.10878407 -0.043455325 -0.0766413 0.11944308 0.07869047 0.067154355 -0.070492744 -0.11020263
-0.187276 0.02863007 0.1526024 -0.14007424 0.12673907 -0.25484717 -0.084993936 0.17900974
0.07678712 -0.13087672 -0.13052525 -0.102389455 -0.21721973 0.10703271 0.10356573 -0.053872395
0.059947964 -0.016079988 -0.10108016 -0.0725032 -0.17051613 0.13358933 0.11732225 -0.112348236
0.13636923 0.08371034 -0.076694846 0.0148758255 -0.045492627 -0.13697724 -0.108499266 -0.1852581
-0.13687553 -0.029455159 -0.089431025 0.07035906 0.043760374 -0.090959854 0.18443969 0.0653613
-0.072546594 0.09517067 -0.1392679 0.05075948 -0.3298601 0.14656503 0.07391315 -0.18056686
00000000: 3a6b 1cbe 2c7c 83bd 27ed 05bd 31ac cdbc
00000010: ecb4 1bbe 3d50 a6bd 6dee 1b3d 3fbf f6bd
00000020: 54e8 7c3c 58a2 2e3e 1a58 83bd b384 0dbd
00000030: 02d2 843c ccd1 f1bd 50cf f7bc d690 31be
00000040: e7c1 53bd feb1 0dbe ec79 fcbd 4acb c0bd
00000050: f7e2 18be a92c 8a3e 6ecf 453e efc5 1abe
00000060: 2bbf debd 2fb5 433e 6764 1fbd d379 a8bd
00000070: 67a3 9e3d b065 38bd 975f afbd 892e 18bd
00000080: bbd6 533e 39cc dbbd 1e4c 74bd 1731 debd
00000090: 1833 bf3d bd9a 61bd f949 30be bfd7 643e
000000a0: 6065 44bc 2598 cdbd c890 ef3d b58f 3a3e
000000b0: 717d d6bd a459 06be d239 8cbd 0cf4 413e
000000c0: e1f3 33be 17dc b836 dfd0 bd3c d450 6e3e
000000d0: 4102 a13c e310 d4bd 835d c6bd cb8c a0bd
000000e0: a19f c8bd 5dcd 013d ba5d 17bd de84 bcbc
000000f0: 59f7 713e a923 29bd 05bf 293e 7306 10be
00000100: 3274 cdbd b33f 5cbd 80d9 d33d 886d 3c3e
00000110: 884a f6bb 5dd5 c5bd 8ad3 c83d 241a 2bbe
00000120: 81b4 d5bd f290 97bd 585b f8bd 26ea 56be
00000130: 70ec afbd 0c0b 2ebd 6195 f2bd 660f a4bd
00000140: 8f64 bcbd 940f 1c3e 5a4e 19be 206a 633e
00000150: da86 49be 84f6 a9bd 72ab 743e 7e1a fabd
00000160: af83 d93d bb32 4a3c 33af 423e cef0 babd
00000170: 4678 b93c 9264 f2bd 95a5 5d3e eb65 7fbc
00000180: 1fc5 c1bd a457 f6bd df95 babd 9875 f83d
00000190: 2f49 f93d 64bb 1ebe ff21 e4bd 5087 3abd
000001a0: aed5 3a3e 416a 68be c0b4 eebd 1c49 7d3c
000001b0: ebaa 433d 7310 b83d b692 9ebe d07f d93d
000001c0: 1a29 16be 0161 35bd 579d 123e 6253 c0bd
000001d0: 7457 91bd 6d64 cdbd 8463 32be e4a7 51be
000001e0: f8ae 21be bc9c 8ebd a6d5 dcbd bfdf 483e
000001f0: 36b9 dfbd 96cd dfbd 22a9 a33c 27bb ac3d
00000200: 7076 edbd 91c2 ca3d 3a36 07be dcd6 26bd
00000210: 0093 1a3e 6ea2 bebd 74bf 68bd b645 24be
00000220: f12c a93d 70db eabd 6c4a 09be 3268 d83c
00000230: bbc4 063e 19ea f93c 151f 10be b646 0a3e
00000240: c20c e53d a998 fc3d c7dc 65be 0a3b 463e
00000250: 4f07 eebd 0148 edbc 0071 193d 8f1d 2cbe
00000260: 77dd cf3d 11a3 103e 43ae a8bd 76d7 0bbe
00000270: 15fa e13d bf27 a9bd d303 c0bd 0b57 0b3e
00000280: 844d ccbc 3cc4 ee3d 69e5 4e3d 3621 a73d
00000290: 8c4d 46bd 549c 07be ef78 c2bd d636 09be
000002a0: 19dd 4dbe 430d 42be 7477 f2bd 7277 aabd
000002b0: e2d8 cabd 1c10 363e 73cc 3cbe 2973 d4bd
000002c0: 955e 08be 8eed a1ba d11c bdbc 5b9d 5ebd
000002d0: ddb2 0a3e 3c19 9b3d 90be 15be 98e8 27be
000002e0: 550b 6bbd 1f4f fcbd e657 a2bc 547e f5bc
000002f0: 04b0 8c3d 5140 763d 1a5f 6fbd 5fd6 08be
00000300: d976 efbd 2ec6 0ebe fa82 0f3e 6f0d d03d
00000310: ff0a 95bc 02fe 223e feef e2bd 7eb2 bebd
00000320: 2fca debd 36fe 31bd 1df6 9cbd 939e f43d
00000330: 7828 a13d 3988 893d 805e 90bd ebb1 e1bd
00000340: 48c5 3fbe 9c89 ea3c ce43 1c3e 9f6f 0fbe
00000350: e3c7 013e 547b 82be 4d11 aebd 544e 373e
00000360: 9142 9d3d 8c04 06be 69a8 05be 90b1 d1bd
00000370: d96e 5ebe f733 db3d 451a d43d 4da9 5cbd
00000380: ff8b 753d 2eba 83bc 1d03 cfbd 8f7c 94bd
00000390: c89b 2ebe a4cb 083e a646 f03d d516 e6bd
000003a0: 60a4 0b3e 5470 ab3d 3012 9dbd bcb9 733c
000003b0: 7a56 3abd c343 0cbe dd34 debd 4db4 3dbe
000003c0: 1929 0cbe f24b f1bc 9d27 b7bd 6918 903d
000003d0: 143e 333d 2949 babd c2dd 3c3e 25dc 853d
000003e0: 4f93 94bd d7e8 c23d 3f9c 0ebe 2ce9 4f3d
000003f0: 6ce3 a8be 2515 163e c75f 973d 85e6 38be

sequential/dense/BiasAdd/ReadVariableOp f4 [256]
-0.0030322135 0.006387051 0.03460043 0.0 -0.009286641 -0.011246699 -0.103206515 0.07178957
-0.01697292 0.0 0.031279717 -0.035994414 -0.017565472 -0.0017956377 0.005520397 0.010739213
0.08266429 -0.012184653 -0.018434538 0.015175557 0.026402904 0.027038544 -0.014793658 -0.012564723
-0.012237481 -0.027416948 -0.019017404 -0.007674802 0.0 -0.01494867 -0.009988761 -0.015446822
0.056150414 -0.029163582 -0.010181506 -0.0045809955 0.033709675 0.0012658754 0.0 -0.03123334
-0.03651759 0.0067498 -0.00036873188 0.0 -0.3610324 0.0016398319 0.0012088494 -0.047467932
-0.021837234 0.008254849 -0.0128501775 0.020373698 -0.014957373 -0.03010278 0.036760963 0.11474973
0.017640058 0.008591736 0.0 0.15225944 0.012750995 0.007337201 -0.01635099 -0.70921516
0.010640976 -0.0042599416 0.012335319 -0.018185293 -0.019965818 -0.026259081 -0.029773872 -0.008505529
0.024181705 -0.029064735 -0.039833333 0.03627097 0.019437034 -0.010851576 0.07008513 -0.011689834
-0.012035771 0.03664546 -0.011192655 -0.015771102 -0.025160363 0.003342028 -0.016462544 -0.023903884
0.0013573557 0.0036054817 -0.007372145 0.00154263 -0.020816505 -0.008536246 -0.006780187 -0.030532328
-0.010582878 -0.0369794 -0.004634948 0.023787329 0.0 -0.017175384 0.029581146 -0.02946417
-0.018947408 0.048245132 0.046990935 0.0027528987 0.008590163 -0.023976654 -0.020333443 -0.029108027
-0.015458524 0.051138643 -0.03104238 0.0046236715 -0.012568529 -0.055283964 -0.010862955 -0.035673607
0.008439986 -0.007874662 0.054593302 -0.0049454635 -0.01667463 -0.10835044 -0.010204176 -0.015561555
0.041957133 0.019943807 -0.005352216 0.003961822 0.026677018 0.04572164 -0.01772474 -0.031758673
0.029140456 -8.435982e-05 -0.023398401 -0.01988313 0.038985983 -0.015095692 -0.010425014 -0.009343432
0.0 -0.011204274 -0.0072860164 -0.00442719 0.05989426 0.0017925593 -0.018660776 -0.03854594
0.0060415054 -0.010483918 0.008529354 0.061989017 0.11356087 0.026976012 0.012437232 0.022177745
-0.0132544255 -0.021427715 -0.011093819 0.02367341 0.017218273 -0.018196963 0.019203154 0.018182034
-0.030161353 0.0 -0.014272996 -0.019739315 -0.014488982 0.006738701 0.043281183 -0.017779384
-0.022795774 -0.016980294 -0.0061324746 0.062047794 -0.025404202 0.016654957 -0.030564263 -0.021203287
-0.012493039 0.022045348 0.03704882 0.050541796 0.0 -0.057448927 -0.42533064 -0.011388087
0.0077756075 0.0052739484 0.023392873 -0.008299806 0.017107833 -0.032629304 -0.05300039 -0.019578908
0.041013543 -0.29500043 -0.015457478 0.03632873 0.010127535 0.039482366 0.002717213 -0.0055587376
-0.007234631 0.025998263 -0.009298723 0.0111019295 0.030917028 -0.013727571 -0.0064713503 -0.0129754655
0.023261188 -0.06850999 0.0 -0.036044165 -0.01632329 0.016697027 0.0022902568 -0.044503782
-0.023679439 -0.01583215 0.0017117792 -0.015644124 -0.015269957 -0.012330343 -0.023633238 -0.04810594
0.012640384 -0.025208112 -0.022049956 0.026261298 -0.009163202 -0.041480597 -0.004586701 -0.05648598
0.0042195343 -0.0030884873 -0.035377417 -0.04944095 -0.017929925 -0.03632812 0.009154681 -0.01808871
0.021535376 -0.009569298 -0.05313494 -0.017767088 0.015529543 -0.008194468 -0.05633857 -0.026842227
00000000: 1ab8 46bb 784a d13b 2eb9 0d3d 0000 0000
00000010: ff26 18bc 1344 38bc f05d d3bd 6906 933d
00000020: cb0a 8bbc 0000 0000 291f 003d e16e 13bd
00000030: 77e5 8fbc 9a5b ebba 72e4 b43b 86f3 2f3c
00000040: e54b a93d 24a2 47bc 0704 97bc e6a2 783c
00000050: e74a d83c f07f dd3c 1961 72bc 45dc 4dbc
00000060: b77f 48bc 8299 e0bc 63ca 9bbc e87c fbbb
00000070: 0000 0000 44eb 74bc e6a7 23bc ab14 7dbc
00000080: fafd 653d 77e8 eebc 55d0 26bc 2d1c 96bb
00000090: 2813 0a3d bbeb a53a 0000 0000 10dd ffbc
000000a0: 7893 15bd 6d2d dd3b 5b52 c1b9 0000 0000
000000b0: 3dd9 b8be a1ef d63a 4172 9e3a bc6d 42bd
000000c0: 00e4 b2bc 593f 073c 8d89 52bc bee6 a63c
000000d0: c50f 75bc 1b9a f6bc aa92 163d e801 eb3d
000000e0: e281 903c 5ac4 0c3c 0000 0000 e6e9 1b3e
000000f0: 8de9 503c e76c f03b 83f2 85bc 208f 35bf
00000100: 7d57 2e3c fb96 8bbb 141a 4a3c 53f9 94bc
00000110: 5b8f a3bc 491d d7bc 56e8 f3bc c65a 0bbc
00000120: b618 c63c 2b19 eebc 4728 23bd de90 143d
00000130: 6a3a 9f3c cfca 31bc cb88 8f3d b886 3fbc
00000140: af31 45bc 8d19 163d 6661 37bc 6632 81bc
00000150: 1b1d cebc ed05 5b3b 75dc 86bc 14d2 c3bc
00000160: 4de9 b13a f249 6c3b 0992 f1bb 1332 ca3a
00000170: 6087 aabc 9cdb 0bbc 552c debb ef1e fabc
00000180: cf63 2dbc b677 17bd c3e0 97bb a5dd c23c
00000190: 0000 0000 64b3 8cbc 2954 f23c d85e f1bc
000001a0: 9837 9bbc b09c 453d 9179 403d fa69 343b
000001b0: c1bd 0c3c b06a c4bc 5292 a6bc f573 eebc
000001c0: c045 7dbc c176 513d 974c febc 2b82 973b
000001d0: 3bec 4dbc 7071 62bd 89fa 31bc 7d1e 12bd
000001e0: de47 0a3c ba04 01bc 3a9d 5f3d 8e0d a2bb
000001f0: 3c99 88bc d6e6 ddbd 6b2f 27bc e4f5 7ebc
00000200: 3edb 2b3d 3261 a33c a461 afbb 2cd2 813b
00000210: c389 da3c 9d46 3b3d 7933 91bc 6215 02bd
00000220: f7b7 ee3c 55ea b0b8 01ae bfbc f2e1 a2bc
00000230: c4af 1f3d ec53 77bc aecd 2abc 3215 19bc
00000240: 0000 0000 2292 37bc 89bf eebb f611 91bb
00000250: af53 753d 4ff4 ea3a 7cde 98bc 59e2 1dbd
00000260: d2f7 c53b bdc4 2bbc b4be 0b3c 32e8 7d3d
00000270: 9a92 e83d ccfc dc3c 88c5 4b3c 1aae b53c
00000280: 1729 59bc 2d89 afbc d9c2 35bc bdee c13c
00000290: 560d 8d3c cc11 95bc ef4f 9d3c 7df2 943c
000002a0: f114 f7bc 0000 0000 49d9 69bc 58b4 a1bc
000002b0: 3263 6dbc 52d0 dc3b 9c47 313d 12a6 91bc
000002c0: 34be babc 421a 8bbc edf2 c8bb d425 7e3d
000002d0: 791c d0bc fa6f 883c e861 fabc 84b2 adbc
000002e0: 9aaf 4cbc 7298 b43c 81c0 173d ea04 4f3d
000002f0: 0000 0000 914f 6bbd f0c4 d9be 1995 3abc
00000300: 86ca fe3b 16d1 ac3b 69a2 bf3c e9fb 07bc
00000310: ba25 8c3c 4ea6 05bd f016 59bd f263 a0bc
00000320: d1fd 273d 4c0a 97be 5d41 7dbc 6fcd 143d
00000330: f6ed 253c 43b8 213d 4513 323b 1226 b6bb
00000340: 7c10 edbb 4ffa d43c ac59 18bc dee4 353c
00000350: b545 fd3c 9be9 60bc 9f0d d4bb 0c97 54bc
00000360: 3f8e be3c f74e 8cbd 0000 0000 0ca3 13bd
00000370: 6cb8 85bc 34c8 883c 2218 163b 9949 36bd
00000380: 62fb c1bc 6db2 81bc c75d e03a 1b28 80bc
00000390: d72e 7abc 3505 4abc 7e9a c1bc bc0a 45bd
000003a0: 9d19 4f3c 3e81 cebc 1ca2 b4bc ef21 d73c
000003b0: 4121 16bc 8fe7 29bd 094c 96bb d85d 67bd
000003c0: 0544 8a3b 3868 4abb e9e7 10bd 9882 4abd
000003d0: c7e1 92bc cbcc 14bd 84fd 153c c62e 94bc
000003e0: f56a b03c 8bc8 1cbc 06a4 59bd 498c 91bc
000003f0: a06f 7e3c 1742 06bc 46c3 66bd 3be4 dbbc

sequential/dense/MatMul f4 [256, 63]
-0.0026458795 -0.050610334 0.01965568 -0.12297337 0.020717967 0.045357253 0.023569075 -0.11281577
-0.051770985 -0.111813076 -0.06616173 -0.036863633 -0.06900437 -0.08788024 -0.15239379 0.07362589
-0.01040041 -0.029876564 0.05345799 0.017380955 -0.040847465 -0.005886001 0.04295025 0.11549434
0.10421252 -0.059680875 0.1307718 0.08321529 0.04343876 -0.08007855 -0.041752048 -0.023078578
0.10560088 -0.03852341 -0.11424334 -0.061862245 0.02581762 -0.10983345 0.11377013 -0.09952306
0.029095381 0.09785176 0.075748526 -0.04168853 -0.03620673 -0.04784046 0.12102636 0.09523285
-0.124076344 0.0052159354 0.12953724 -0.06759658 0.028895961 -0.112064056 0.05581424 0.08019496
-0.09532595 -0.006020259 0.10409806 -0.1187055 -0.04302455 -0.06832662 0.041827448 -0.11596005
-0.09652617 0.056519058 -0.08338198 -0.04043913 0.085004374 0.058398146 -0.062164824 -0.045457326
0.023189282 0.06421474 0.1109418 0.11907097 0.1664024 -0.038768314 -0.06901316 -0.15853216
-0.004379495 -0.08664268 0.035302445 0.031427365 -0.08947849 -0.11682879 0.085549526 -0.023203988
0.026815379 -0.010448301 -0.017311357 -0.06274663 0.003664312 0.05778467 -0.10108682 0.06391669
0.067761295 -0.1076359 -0.008297046 -0.058305755 -0.018687066 0.1755566 -0.029691271 -0.17711629
-0.057627555 -0.054838333 -0.12915547 0.1604555 -0.12736681 -0.10671476 -0.08094475 -0.1856825
-0.11677281 -0.034300763 -0.013750961 -0.12001821 0.10817035 -0.10022714 0.023572953 0.066352084
-0.20034562 -0.079195894 -0.035033535 -0.08860123 0.012895375 0.19953479 -0.16526772 -0.075625144
-0.30640438 0.053174555 0.06629227 -0.26946864 0.047295287 0.036664348 -0.2272227 -0.03219212
-0.2356872 -0.054578993 -0.24856071 -0.12756455 0.05520501 -0.04269714 -0.10619267 0.1010026
0.124795064 -0.0066258046 0.10994104 -0.11641792 0.002972046 -0.024651801 0.0705132 0.16192412
-0.16839698 0.07876859 0.07768405 0.14109458 0.07655351 0.088951275 0.0845799 -0.12483439
-0.09464589 0.009156475 -0.13663033 0.009513204 0.10570812 -0.15116788 -0.12901907 -0.043437727
-0.05952934 0.030732624 0.13360035 0.106216066 -0.10915415 0.07678587 0.10330623 -0.13812248
-0.037963495 -0.13530892 -0.08396913 0.09698508 -0.11093598 0.040711015 -0.039329357 -0.010353855
0.055705156 0.101299524 0.076078795 -0.0020797916 -0.15052387 -0.058991663 -0.039008185 -0.028305002
-0.03561028 0.10287996 0.03553298 -0.010805815 -0.115613244 -0.069415115 -0.03815268 0.006442502
-0.13543925 -0.060677536 0.0010657907 0.06503156 0.13677329 0.06671527 0.11405012 0.034659162
0.012642652 0.0739474 -0.0017240644 -0.027207434 0.061205044 0.040565982 0.010963038 0.0017881542
-0.06882462 -0.050284527 0.07137549 0.0801609 -0.010201007 0.019755572 -0.07679193 -0.035082765
-0.11525923 0.0033288747 -0.0887667 0.13339713 -0.1112178 0.03822288 0.1299097 -0.011039898
0.020379901 0.10586409 -0.0663315 -0.09446435 -0.047572628 0.061667994 0.03473836 0.041469753
-0.03406086 -0.10689499 -0.13293648 -0.12917416 -0.072017506 0.040757492 0.017115772 -0.12714006
-0.082681775 -0.024593785 -0.044296846 -0.021817178 -0.109385855 -0.019077396 0.042042203 -0.018519871
00000000: 7e66 2dbb c84c 4fbd f304 a13c 76d9 fbbd
00000010: bab8 a93c 87c8 393d ef13 c13c f40b e7bd
00000020: d00d 54bd 41fe e4bd cd7f 87bd 52fe 16bd
00000030: 2a52 8dbd 8efa b3bd 1e0d 1cbe 2cc9 963d
00000040: 7b66 2abc b2bf f4bc c4f6 5a3d 8162 8e3c
00000050: ac4f 27bd 5bdf c0bb 9aec 2f3d 4c88 ec3d
00000060: 606d d53d ef73 74bd 0be9 053e c76c aa3d
00000070: d7ec 313d 3900 a4bd 3204 2bbd 490f bdbc
00000080: 4645 d83d b9ca 1dbd 6af8 e9bd 4463 7dbd
00000090: 797f d33c 5cf0 e0bd 5000 e93d bfd2 cbbd
000000a0: 7059 ee3c 8166 c83d 0b22 9b3d 98c1 2abd
000000b0: 824d 14bd 5cf4 43bd abdc f73d 7109 c33d
000000c0: bd1b febd 70ea aa3b 69a5 043e 1370 8abd
000000d0: 39b7 ec3c d781 e5bd 799d 643d 413d a43d
000000e0: 403a c3bd 9845 c5bb 5d31 d53d df1b f3bd
000000f0: 833a 30bd d4ee 8bbd 4253 2b3d 767c edbd
00000100: 83af c5bd 8780 673d 2cc4 aabd 80a3 25bd
00000110: c616 ae3d e532 6f3d 8ba0 7ebd 7631 3abd
00000120: 73f7 bd3c 0583 833d 7435 e33d 7bdb f33d
00000130: 6465 2a3e 86cb 1ebd c656 8dbd 4156 22be
00000140: de81 8fbb b871 b1bd 4c99 103d fbb9 003d
00000150: 8040 b7bd ef43 efbd 9734 af3d 4a16 bebc
00000160: edab db3c 5a2f 2bbc 8cd0 8dbc 4e81 80bd
00000170: f424 703b 9eaf 6c3d 9b06 cfbd c1e6 823d
00000180: 6fc6 8a3d 3670 dcbd 55f0 07bc 04d2 6ebd
00000190: 9e15 99bc 1cc5 333e 1c3b f3bc f95d 35be
000001a0: df0a 6cbd 299e 60bd 5541 04be 724e 243e
000001b0: 726c 02be 458d dabd 5cc6 a5bd 8e23 3ebe
000001c0: 9526 efbd f57e 0cbd b64b 61bc 1bcc f5bd
000001d0: 6b88 dd3d e343 cdbd 111c c13c 9ae3 873d
000001e0: 6727 4dbe 7531 a2bd 537f 0fbd 9074 b5bd
000001f0: 1f47 533c d952 4c3e f13b 29be 5be1 9abd
00000200: 09e1 9cbe 90cd 593d 3ec4 873d cbf7 89be
00000210: b4b8 413d 5b2d 163d 11ad 68be e2db 03bd
00000220: fc57 71be 398e 5fbd b386 7ebe 48a0 02be
00000230: a61e 623d 32e3 2ebd 8b7b d9bd 73da ce3d
00000240: 8e94 ff3d 471d d9bb c528 e13d 856c eebd
00000250: a8c6 423b 93f2 c9bc 3969 903d 70cf 253e
00000260: 4270 2cbe 6d51 a13d d118 9f3d 197b 103e
00000270: 16c8 9c3d 162c b63d 3a38 ad3d 2ca9 ffbd
00000280: b4d5 c1bd 0a05 163c d2e8 0bbe 45dd 1b3c
00000290: 807d d83d c1cb 1abe 931d 04be c2eb 31bd
000002a0: 0ad5 73bd fcc2 fb3c 88ce 083e cf87 d93d
000002b0: 368c dfbd e941 9d3d 3792 d33d fb6f 0dbe
000002c0: 9c7f 1bbd 6c8e 0abe 02f8 abbd 1da0 c63d
000002d0: 6732 e3bd 98c0 263d d217 21bd 37a3 29bc
000002e0: 172b 643d 2076 cf3d 33cf 9b3d 1d4d 08bb
000002f0: ee22 1abe 3ea1 71bd 0cc7 1fbd e4df e7bc
00000300: 16dc 11bd bab2 d23d 088b 113d e00a 31bc
00000310: a3c6 ecbd 8329 8ebd fc45 1cbd a01b d33b
00000320: 96b0 0abe 0289 78bd 00b2 8b3a 442f 853d
00000330: 4c0e 0c3e 04a2 883d 1c93 e93d c4f6 0d3d
00000340: 2023 4f3c bc71 973d 00fa e1ba 20e2 debc
00000350: 24b2 7a3d 8428 263d 509e 333c 8060 ea3a
00000360: ecf3 8cbd 26f7 4dbd 502d 923d 662b a43d
00000370: 2022 27bc 70d6 a13c 1645 9dbd f2b2 0fbd
00000380: 080d ecbd 4029 5a3b 51cb b5bd 4299 083e
00000390: 28c6 e3bd 988f 1c3d 0c07 053e b0e0 34bc
000003a0: c0f3 a63c 46cf d83d cfd8 87bd 8676 c1bd
000003b0: 84db 42bd 9497 7c3d d049 0e3d 30dc 293d
000003c0: 6683 0bbd c3eb dabd 8020 08be 3b46 04be
000003d0: ea7d 93bd 54f1 263d 6036 8c3c 0131 02be
000003e0: 1055 a9bd e878 c9bc 9c70 35bd f0b9 b2bc
000003f0: b105 e0bd 3348 9cbc 7234 2c3d fcb6 97bc
