gestureML/MLtrain/models/model.tflite (tflite, 63592 bytes, 8 tensors)

sequential/dense/BiasAdd/ReadVariableOp f4 [256]
0.0 -0.005157383 -0.011925931 -0.017289523 -0.029518662 0.038505178 0.013810268 -0.020706208
0.013546029 0.02276409 0.027224343 -0.037209205 0.032611854 -0.0020781432 -0.004423741 0.039000213
0.0 0.0123052765 -0.017823033 -0.031169256 -0.010115307 0.0 0.011500287 -0.019650903
-0.0193869 0.006192776 -0.03959879 -0.06909208 -0.002756906 0.005009912 0.011838463 -0.0353777
0.0 0.019235931 -0.011437376 0.023517406 -0.018937988 0.038545035 0.17643574 -0.0066914917
0.02439587 0.18402852 -0.030308839 0.034415696 -0.021042056 -0.006039676 0.016788824 0.002952992
0.039469156 -0.017374322 0.021433758 -0.08821884 -0.006041928 -0.021221574 0.027641984 -0.010638956
-0.021252586 -0.012703469 0.07370284 -0.027781546 -0.35389057 -0.01446848 -0.0155144585 -0.13730739
-0.03787554 -0.057665925 -0.011401115 0.01992342 -0.017436426 -0.04510313 0.06770583 -0.0074183596
-0.026312418 0.0 -0.034379385 -0.007179125 -0.029683791 -0.07678354 -0.3654625 0.0
-0.011889822 -0.015867805 -0.042925313 0.004480049 -0.027108474 -0.00787639 0.059075244 0.023105543
-0.018871957 -0.018010253 0.059941735 0.06986816 -0.005910927 0.030210268 0.0 0.033810295
-0.027652105 0.015052337 0.034893032 0.027086018 -0.015222955 0.0047879904 0.0020046476 0.0
-0.021269862 -0.020675803 0.0017261545 0.032762628 -0.022267848 -0.03446461 -0.025339717 0.077509224
-0.030733025 -0.041729424 0.024009934 0.022090217 -0.019379562 -0.0059104157 -0.047922008 -0.008635666
-0.023325128 0.030040074 0.009984075 -0.008815283 -0.0011061194 0.049328785 -0.048289996 -0.04905973
-0.03307842 -0.01475563 -0.0044109677 -0.0315284 -0.049280472 -0.031568035 -0.013246219 -0.0358735
-0.015820041 -0.010466392 -0.051120657 0.038800467 0.038592916 -0.021943903 -0.010274069 -0.11542546
-0.051632423 -0.044770367 -0.049835745 -0.0012489128 -0.015057434 0.022650857 -0.005415974 0.01482026
-0.015105571 -0.010062441 0.014234453 -0.018469362 0.0 -0.02977721 -0.015370067 0.008311467
-0.019739766 -0.03851816 0.014915823 0.026849732 -0.043113384 -0.0565298 0.0051241145 0.0080057075
-0.01884469 0.32312727 0.006621595 0.015833326 0.022496315 0.0543335 0.0 -0.049185768
0.061412282 -0.04322835 -0.03410993 -0.013083197 -0.002476187 -0.06392442 0.005590252 0.0
0.04676451 -0.0071109952 0.012843965 0.030066041 -0.0061181677 -0.023379283 -0.04722362 -0.030866768
0.0 -0.03317653 -0.012528465 0.02102149 0.041831315 0.021004088 0.031237988 6.771423e-06
-0.06433229 0.038585078 -0.013375542 -0.015349856 0.0026427286 0.024477866 0.0 0.030254195
-0.012189964 -0.010736652 -0.010067054 -0.00616942 -0.017314404 0.0035157048 -0.018810466 0.032170217
-0.3644656 -0.001222757 -0.05944423 0.055430587 -0.0059109563 0.0 -0.0067658015 0.0
0.010861626 0.03469569 0.022168504 -0.038649812 -0.040062785 0.0 -0.052838102 -0.009906636
0.0058845277 -0.042892575 0.0014069184 0.022493483 -0.0051613175 0.0034383708 -0.017402021 0.016312214
-0.07043995 -0.0049708514 0.03849892 0.017332688 -0.020519495 -0.015442324 -0.006753137 -0.010202222
-0.017370448 -0.017424615 0.022805832 0.035045765 0.015502935 0.027373692 -0.20775168 -0.008659786
00000000: 0000 0000 44ff a8bb fb64 43bc c2a2 8dbc
00000010: 1fd1 f1bc 9bb7 1d3d 7644 623c 11a0 a9bc
00000020: 2af0 5d3c c27b ba3c 9605 df3c ae68 18bd
00000030: 0294 053d 7531 08bb 07f5 90bb b0be 1f3d
00000040: 0000 0000 129c 493c 9c01 92bc ab56 ffbc
00000050: acba 25bc 0000 0000 b36b 3c3c eefa a0bc
00000060: 47d1 9ebc c5ec ca3b 5732 22bd 2680 8dbd
00000070: 35ad 34bb 302a a43b 1df6 413c 35e8 10bd
00000080: 0000 0000 ac94 9d3c d563 3bbc 93a7 c03c
00000090: d723 9bbc 66e1 1d3d 92ab 343e 4d44 dbbb
000000a0: d9d9 c73c f971 3c3e 3e4a f8bc 79f7 0c3d
000000b0: 6460 acbc 79e8 c5bb b788 893c fc86 413b
000000c0: 69aa 213d 9854 8ebc d995 af3c 14ac b4bd
000000d0: 5efb c5bb ded8 adbc 7171 e23c 044f 2ebc
000000e0: e719 aebc 3622 50bc 84f1 963d 2096 e3bc
000000f0: 2531 b5be 340d 6dbc 5b30 7ebc 4f9a 0cbe
00000100: 6223 1bbd 1b33 6cbd becb 3abc 7136 a33c
00000110: d6d6 8ebc 0fbe 38bd 5ba9 8a3d b615 f3bb
00000120: 248d d7bc 0000 0000 66d1 0cbd de3e ebbb
00000130: 6c2b f3bc b040 9dbd e71d bbbe 0000 0000
00000140: 87cd 42bc 33fd 81bc 74d2 2fbd 60cd 923b
00000150: 9712 debc f90b 01bc e2f8 713d d647 bd3c
00000160: 5d99 9abc 3d8a 93bc 7785 753d 0a17 8f3d
00000170: 73b0 c1bb 867b f73c 0000 0000 aa7c 0a3d
00000180: ab86 e2bc 149e 763c ffeb 0e3d 7fe3 dd3c
00000190: b369 79bc 93e4 9c3b 6860 033b 0000 0000
000001a0: 223e aebc 4d60 a9bc 2240 e23a 1b32 063d
000001b0: 106b b6bc c32a 0dbd 3d95 cfbc 28bd 9e3d
000001c0: d3c3 fbbc 79ec 2abd 7bb0 c43c 8bf6 b43c
000001d0: e3c1 9ebc 29ac c1bb de49 44bd 9c7c 0dbc
000001e0: 5714 bfbc 9a16 f63c 3f94 233c fa6d 10bc
000001f0: 35fb 90ba fb0c 4a3d bbcb 45bd dbf2 48bd
00000200: 3d7d 07bd 99c1 71bc e189 90bb ec23 01bd
00000210: 52da 49bd 7c4d 01bd ab06 59bc 17f0 12bd
00000220: 0899 81bc 3b7b 2bbc e563 51bd 3ded 1e3d
00000230: 9b13 1e3d b3c3 b3bc 9254 28bc 2f64 ecbd
00000240: 857c 53bd 2261 37bd 9120 4cbd 8fb2 a3ba
00000250: 75b3 76bc 4a8e b93c 7c78 b1bb add0 723c
00000260: 5b7d 77bc f0dc 24bc a037 693c 0f4d 97bc
00000270: 0000 0000 56ef f3bc bcd2 7bbc d22c 083c
00000280: 4ab5 a1bc 38c5 1dbd 7f61 743c f8f3 db3c
00000290: a997 30bd cb8b 67bd 30e8 a73b 5f2a 033c
000002a0: 2e60 9abc f070 a53e f7f9 d83b e4b4 813c
000002b0: 314a b83c ce8c 5e3d 0000 0000 0477 49bd
000002c0: 728b 7b3d 3610 31bd dbb6 0bbd e85a 56bc
000002d0: 8647 22bb ceea 82bd 6f2e b73b 0000 0000
000002e0: 258c 3f3d 5a03 e9bb 7e6f 523c 0f4d f63c
000002f0: e97a c8bb e985 bfbc 8e6d 41bd 4edc fcbc
00000300: 0000 0000 1de4 07bd 3144 4dbc 4335 ac3c
00000310: 5057 2b3d c410 ac3c cfe6 ff3c 1536 e336
00000320: a6c0 83bd 630b 1e3d 1725 5bbc f67d 7bbc
00000330: a131 2d3b ce85 c83c 0000 0000 a5d7 f73c
00000340: 6ab8 47bc c8e8 2fbc 49f0 24bc d928 cabb
00000350: f0d6 8dbc bd67 663b 6818 9abc ebc4 033d
00000360: 3c9b babe eb44 a0ba cb7b 73bd 2f0b 633d
00000370: b2b0 c1bb 0000 0000 a8b3 ddbb 0000 0000
00000380: f6f4 313c 111d 0e3d b99a b53c 444f 1ebd
00000390: e018 24bd 0000 0000 c46c 58bd 714f 22bc
000003a0: ffd2 c03b 20b0 2fbd 5968 b83a 4144 b83c
000003b0: 4520 a9bb 4a56 613b af8e 8ebc 31a1 853c
000003c0: d242 90bd 86e2 a2bb 0bb1 1d3d 48fd 8d3c
000003d0: 8018 a8bc cd01 7dbc 6b49 ddbb 3827 27bc
000003e0: 784c 8ebc 11be 8ebc 4cd3 ba3c 268c 0f3d
000003f0: 0600 7e3c cb3e e03c dbbc 54be c6e1 0dbc

sequential/dense_3/MatMul;sequential/dense_3/BiasAdd f4 [18]
0.8723773 0.94636965 0.59021366 0.72169393 0.80744135 0.7624227 0.63331366 0.9130998
0.4909097 0.70467865 0.71910524 0.8462044 0.58012426 0.52177674 0.47904575 0.9118275
0.76435405 0.7079346
00000000: 1e54 5f3f 4845 723f 3e18 173f efc0 383f
00000010: 7ab4 4e3f 222e 433f d820 223f e9c0 693f
00000020: 8458 fb3e d265 343f 4817 383f daa0 583f
00000030: 0683 143f 2993 053f 7c45 f53e 876d 693f
00000040: b5ac 433f 343b 353f

sequential/dense_2/MatMul;sequential/dense_2/Relu;sequential/dense_2/BiasAdd f4 [64]
2.1414192 2.0809014 0.5756179 2.0056188 2.0185137 2.2391226 -0.09695289 1.5938171
1.2280381 0.48607334 1.2115993 2.101705 0.22678286 1.0755562 1.5261654 1.2142128
-0.46846643 1.8330364 1.326112 1.4115206 1.9341432 2.587336 1.4847109 1.4606081
1.2815708 2.0600867 0.8651189 1.1342973 -0.19537216 1.4536167 1.7057582 1.848516
2.0969265 1.9208256 1.0389589 0.6030417 0.673118 1.1928748 2.1881688 0.9971215
1.9303508 0.4324083 0.653769 1.654333 0.9974865 2.5353198 0.095694646 -1.8289421
1.3768743 2.0621374 1.4678011 1.0003165 1.0117097 1.3254863 0.9459338 1.6755865
4.128903 2.0529559 1.342169 1.105478 1.1629366 0.8637884 1.3097426 1.1288459
00000000: 030d 0940 7d2d 0540 b25b 133f 0f5c 0040
00000010: 542f 0140 c94d 0f40 3d8f c6bd 3302 cc3f
00000020: 5a30 9d3f 9bde f83e b015 9b3f 5682 0640
00000030: c439 683e d3ab 893f 6359 c33f 536b 9b3f
00000040: d5da efbe f0a0 ea3f 0abe a93f b5ac b43f
00000050: 0192 f73f ea96 2540 020b be3f 35f5 ba3f
00000060: 830a a43f 76d8 0340 6f78 5d3f a730 913f
00000070: a40f 48be 1d10 ba3f 4956 da3f 2c9c ec3f
00000080: 0b34 0640 9ddd f53f 9bfc 843f f160 1a3f
00000090: 7651 2c3f 1fb0 983f f50a 0c40 5b43 7f3f
000000a0: bc15 f73f 9f64 dd3e 685d 273f 2fc1 d33f
000000b0: 465b 7f3f ae42 2240 8efb c33d c61a eabf
000000c0: 6b3d b03f 0ffa 0340 e8e0 bb3f 5f0a 803f
000000d0: b47f 813f 89a9 a93f b828 723f 9e79 d63f
000000e0: f91f 8440 a163 0340 32cc ab3f 4e80 8d3f
000000f0: 1bdb 943f 3d21 5d3f a5a5 a73f 067e 903f

sequential/dense_1/MatMul;sequential/dense_1/Relu;sequential/dense_1/BiasAdd f4 [128]
0.87615687 0.51212174 1.1761777 1.0134499 0.9165221 0.56776816 1.0510249 0.21125573
1.3379095 0.10472249 0.70597905 0.61035633 1.2305676 0.6269059 0.8518104 0.9429528
0.5104612 0.65636647 1.1018903 0.37625626 0.8702513 0.85001916 0.48880097 1.4762692
0.8610967 0.90704674 0.58177435 0.87595814 0.9062812 0.68868244 0.93710434 1.1988223
0.39985466 0.8667892 1.2464399 1.1780545 0.8933795 0.73898786 0.81841254 0.58436203
1.4577317 0.6832856 0.9073219 1.2801025 0.34012574 1.6589041 1.6799722 0.9226301
0.51116085 1.1039873 0.9516593 0.42694774 0.83107054 0.53202844 0.65790725 1.0648412
1.0006269 0.81611294 0.81748706 0.85049045 0.6561487 0.6411705 0.65610844 0.9985554
1.6040936 0.6629281 0.73951244 1.5642332 1.0956662 0.7920015 0.95106345 0.03353006
0.6809464 0.2056633 0.6142012 0.93084294 0.3784176 1.1343664 0.97713625 0.9790443
1.9039283 0.88027376 1.3061329 0.77742076 1.631474 1.5817071 0.5332506 0.75466406
1.2545165 1.4561186 1.1808357 0.58784485 0.42634994 1.6491871 0.8689774 1.3155633
0.9946651 0.3549056 0.5593424 0.7650884 0.5933021 0.9187351 1.0906053 0.5530914
0.9093074 1.037321 1.544447 0.759932 0.6144972 0.7292056 1.2999442 0.92536837
0.5878946 1.3851459 1.3187355 1.1739619 1.2357576 1.0004901 0.7535504 0.3318389
0.6480887 1.2614936 0.40627894 0.8221016 1.4339151 0.995407 0.5446009 1.4119321
00000000: d14b 603f 691a 033f fe8c 963f bab8 813f
00000010: 31a1 6a3f 4159 113f fc87 863f 6c53 583e
00000020: 9e40 ab3f bf78 d63d 0bbb 343f 5040 1c3f
00000030: 3d83 9d3f e87c 203f 3f10 5a3f 5b65 713f
00000040: 96ad 023f a207 283f be0a 8d3f a9a4 c03e
00000050: cac8 5e3f db9a 593f 1f44 fa3e 64f6 bc3f
00000060: d570 5c3f 3734 683f 2aef 143f cb3e 603f
00000070: 0b02 683f 7e4d 303f 12e6 6f3f 0273 993f
00000080: c0b9 cc3e e6e5 5d3f 588b 9f3f 7dca 963f
00000090: 85b4 643f 4f2e 3d3f 7c83 513f c098 153f
000000a0: f496 ba3f ceeb 2e3f 3f46 683f 66da a33f
000000b0: f624 ae3e f856 d43f 5409 d73f 7c31 6c3f
000000c0: 70db 023f 754f 8d3f f29f 733f e598 da3e
000000d0: 0ac1 543f 0433 083f 9c6c 283f b74c 883f
000000e0: 8b14 803f c7ec 503f d546 513f beb9 593f
000000f0: 5cf9 273f c023 243f b9f6 273f 54a1 7f3f
00000100: f052 cd3f a8b5 293f b050 3d3f cb38 c83f
00000110: ca3e 8c3f 9cc0 4a3f e578 733f d156 093d
00000120: 8152 2e3f 6699 523e 4a3c 1d3f b94b 6e3f
00000130: f4bf c13e eb32 913f 9a25 7a3f a6a2 7a3f
00000140: ecb3 f33f 9f59 613f 5d2f a73f 0c05 473f
00000150: 24d4 d03f 6175 ca3f 1c83 083f aa31 413f
00000160: ff93 a03f 1862 ba3f a025 973f 007d 163f
00000170: 8a4a da3e 9018 d33f 4e75 5e3f 6164 a83f
00000180: 5fa2 7e3f 30b6 b53e 1031 0f3f d5dc 433f
00000190: a5e2 173f 3932 6b3f f498 8b3f 6697 0d3f
000001a0: 5fc8 683f efc6 843f 70b0 c53f e78a 423f
000001b0: b04f 1d3f 38ad 3a3f 9264 a63f f1e4 6c3f
000001c0: 4380 163f 764c b13f 53cc a83f 6244 963f
000001d0: 4e2d 9e3f 0f10 803f aee8 403f cae6 a93e
000001e0: 24e9 253f 9f78 a13f cb03 d03e 4075 523f
000001f0: 888a b73f fed2 7e3f f76a 0b3f 31ba b43f

sequential/batch_normalization/batchnorm/mul_1;sequential/batch_normalization/batchnorm/add_1;sequential/dense_1/MatMul;sequential/dense_1/Relu;sequential/dense_1/BiasAdd i1 [128, 256] scale=0.18339832 zero_point=0
-2.750975 -4.2181616 3.3011699 3.6679664 -0.7335933 -0.7335933 -4.7683563 5.50195
-0.18339832 -0.9169916 -4.2181616 -3.6679664 -2.0173814 0.7335933 -8.252925 0.18339832
0.550195 0.7335933 -2.0173814 -2.20078 1.2837882 0.0 1.4671866 4.9517546
-1.4671866 -11.187298 -1.8339832 0.7335933 8.252925 3.484568 4.034763 -2.20078
-2.5675764 -0.36679664 -3.484568 -1.4671866 -0.9169916 -9.536713 0.18339832 6.969136
-2.20078 -0.18339832 -0.7335933 -6.0521445 -0.9169916 6.969136 2.20078 -1.8339832
-2.5675764 -0.7335933 -3.3011699 4.584958 0.7335933 5.135153 1.8339832 0.18339832
-0.18339832 2.0173814 -0.550195 -2.20078 -0.18339832 2.9343731 4.7683563 -2.0173814
-0.18339832 -3.6679664 -0.550195 2.750975 -2.20078 -0.9169916 -1.2837882 -1.10039
-1.10039 -2.3841782 -3.1177714 2.3841782 -2.9343731 -1.2837882 -0.9169916 0.9169916
4.7683563 -6.0521445 5.135153 0.36679664 -0.550195 -3.6679664 0.18339832 -3.6679664
2.750975 -0.9169916 2.5675764 -0.36679664 3.1177714 -0.36679664 4.9517546 -0.18339832
-3.6679664 -1.4671866 -1.4671866 4.034763 -2.5675764 -0.7335933 -2.3841782 0.36679664
4.034763 -1.2837882 -3.8513649 0.9169916 5.685348 -3.484568 -4.40156 -0.550195
5.685348 -0.9169916 -2.750975 5.8687463 1.4671866 1.10039 -0.550195 -2.5675764
-5.135153 0.36679664 0.9169916 7.1525345 -4.034763 -0.36679664 3.8513649 -0.7335933
1.6505849 -0.36679664 -1.10039 -0.550195 5.685348 -2.9343731 -0.18339832 0.18339832
-3.3011699 1.4671866 -1.8339832 0.0 -0.36679664 5.135153 2.3841782 -1.2837882
2.0173814 -2.20078 -0.9169916 -6.0521445 1.8339832 2.9343731 0.550195 4.584958
2.0173814 -0.9169916 -0.18339832 3.1177714 1.10039 -3.1177714 -0.18339832 -2.0173814
-2.5675764 0.18339832 -1.4671866 1.6505849 -2.750975 8.619721 -0.18339832 -2.750975
0.9169916 -2.5675764 4.034763 0.0 0.0 -2.3841782 -3.6679664 0.9169916
-0.36679664 0.550195 10.086907 -2.5675764 -0.36679664 -3.484568 2.20078 1.10039
-1.4671866 2.750975 3.3011699 -0.7335933 -0.18339832 3.1177714 1.6505849 -7.886128
1.2837882 -2.9343731 5.135153 -0.7335933 -1.2837882 0.7335933 0.36679664 3.6679664
-3.1177714 4.7683563 -6.418941 7.886128 2.5675764 0.9169916 0.9169916 2.750975
-4.034763 -2.5675764 -2.0173814 7.886128 0.550195 2.20078 -2.750975 0.7335933
-0.18339832 1.2837882 -1.4671866 -2.3841782 -3.6679664 -8.069526 -0.18339832 -0.550195
-1.8339832 4.584958 1.6505849 -0.7335933 -2.5675764 -6.418941 4.584958 2.3841782
1.4671866 3.8513649 6.418941 -1.10039 -4.9517546 -2.9343731 0.0 2.5675764
0.18339832 3.6679664 0.18339832 -2.3841782 -4.584958 -4.584958 -2.20078 -5.3185515
0.7335933 4.9517546 -3.8513649 -4.9517546 -3.1177714 -3.3011699 -0.36679664 -3.6679664
00000000: f1e9 1214 fcfc e61e fffb e9ec f504 d301
00000010: 0304 f5f4 0700 081b f8c3 f604 2d13 16f4
00000020: f2fe edf8 fbcc 0126 f4ff fcdf fb26 0cf6
00000030: f2fc ee19 041c 0a01 ff0b fdf4 ff10 1af5
00000040: ffec fd0f f4fb f9fa faf3 ef0d f0f9 fb05
00000050: 1adf 1c02 fdec 01ec 0ffb 0efe 11fe 1bff
00000060: ecf8 f816 f2fc f302 16f9 eb05 1fed e8fd
00000070: 1ffb f120 0806 fdf2 e402 0527 eafe 15fc
00000080: 09fe fafd 1ff0 ff01 ee08 f600 fe1c 0df9
00000090: 0bf4 fbdf 0a10 0319 0bfb ff11 06ef fff5
000000a0: f201 f809 f12f fff1 05f2 1600 00f3 ec05
000000b0: fe03 37f2 feed 0c06 f80f 12fc ff11 09d5
000000c0: 07f0 1cfc f904 0214 ef1a dd2b 0e05 050f
000000d0: eaf2 f52b 030c f104 ff07 f8f3 ecd4 fffd
000000e0: f619 09fc f2dd 190d 0815 23fa e5f0 000e
000000f0: 0114 01f3 e7e7 f4e3 041b ebe5 efee feec

sequential/batch_normalization_1/batchnorm/mul_1;sequential/batch_normalization_1/batchnorm/add_1;sequential/dense_2/MatMul;sequential/dense_2/Relu;sequential/dense_2/BiasAdd i1 [64, 128] scale=0.037339732 zero_point=0
0.5227562 0.074679464 -0.14935893 0.2613781 0.2613781 -0.18669866 -0.3360576 -0.8588138
0.41073704 -0.3360576 0.97083306 -1.1575317 -1.3815701 -1.9416661 0.29871786 0.5227562
-0.48541653 0.22403839 -0.037339732 0.22403839 -2.80048 -0.7094549 -0.14935893 0.074679464
0.3360576 -0.6721152 0.0 -0.8588138 -0.112019196 -0.37339732 -0.112019196 -0.037339732
-0.074679464 -0.7094549 -0.3360576 0.14935893 0.41073704 0.0 0.074679464 0.0
0.37339732 -0.7094549 -0.8214741 1.3815701 -0.14935893 0.5227562 0.6721152 0.074679464
-0.6721152 0.0 0.29871786 -1.6056085 0.0 -0.48541653 0.3360576 -1.6056085
0.18669866 0.074679464 0.0 -1.7549675 -0.22403839 -0.074679464 -2.80048 -0.14935893
0.112019196 0.18669866 0.29871786 0.5974357 -0.6721152 -0.7094549 -0.74679464 -0.5227562
0.18669866 0.112019196 -0.3360576 0.037339732 -2.9124992 -0.56009597 -0.97083306 -0.074679464
0.14935893 -0.112019196 0.112019196 0.074679464 0.29871786 0.56009597 0.037339732 0.0
-0.074679464 -0.22403839 -0.44807678 0.112019196 0.14935893 0.112019196 -0.18669866 0.44807678
0.0 0.037339732 -0.112019196 -0.29871786 -0.112019196 -0.48541653 0.6721152 -0.074679464
-0.5974357 0.22403839 0.5227562 0.14935893 0.2613781 0.14935893 -1.680288 -0.074679464
0.29871786 -0.14935893 0.0 0.074679464 -0.2613781 -0.37339732 -0.037339732 -0.8588138
-0.63477546 0.5227562 0.5227562 0.2613781 0.63477546 0.0 0.037339732 0.9334933
0.5974357 -0.18669866 -0.112019196 -0.41073704 -0.8214741 0.29871786 -0.8588138 0.5227562
0.14935893 -0.037339732 0.0 0.41073704 0.074679464 -1.2322111 0.18669866 0.037339732
-0.112019196 0.44807678 -0.2613781 -0.037339732 -0.48541653 -0.3360576 -0.18669866 -0.5227562
0.074679464 -0.9334933 -0.48541653 -0.18669866 0.14935893 0.22403839 0.112019196 -1.3068906
-0.22403839 0.18669866 0.41073704 -0.14935893 0.8214741 -0.48541653 -0.037339732 0.14935893
0.0 -0.63477546 0.22403839 0.2613781 -0.14935893 1.1201919 0.2613781 -0.56009597
-0.48541653 -0.56009597 0.44807678 -1.6429482 -1.6429482 0.0 0.0 -0.37339732
0.0 -0.9334933 0.112019196 0.18669866 -1.4562496 -0.63477546 -2.7631402 -0.44807678
-1.3815701 -0.112019196 -0.037339732 0.22403839 0.18669866 -0.18669866 -1.2322111 -0.112019196
-0.14935893 0.074679464 0.22403839 -1.4189098 -1.7923071 0.112019196 0.6721152 0.037339732
0.3360576 -0.14935893 0.3360576 0.2613781 0.41073704 0.112019196 -0.037339732 -0.037339732
0.14935893 -0.89615357 0.37339732 0.0 -0.7094549 0.037339732 0.0 1.2322111
0.112019196 -0.074679464 -0.9334933 0.074679464 0.48541653 0.14935893 0.2613781 0.037339732
0.5227562 -0.14935893 0.22403839 -0.112019196 0.29871786 -0.44807678 -1.9416661 0.18669866
0.112019196 0.074679464 -0.37339732 0.037339732 -0.48541653 0.037339732 -0.29871786 -1.0455124
-0.56009597 0.112019196 0.0 0.037339732 0.56009597 0.18669866 -1.3815701 0.6721152
00000000: 0e02 fc07 07fb f7e9 0bf7 1ae1 dbcc 080e
00000010: f306 ff06 b5ed fc02 09ee 00e9 fdf6 fdff
00000020: feed f704 0b00 0200 0aed ea25 fc0e 1202
00000030: ee00 08d5 00f3 09d5 0502 00d1 fafe b5fc
00000040: 0305 0810 eeed ecf2 0503 f701 b2f1 e6fe
00000050: 04fd 0302 080f 0100 fefa f403 0403 fb0c
00000060: 0001 fdf8 fdf3 12fe f006 0e04 0704 d3fe
00000070: 08fc 0002 f9f6 ffe9 ef0e 0e07 1100 0119
00000080: 10fb fdf5 ea08 e90e 04ff 000b 02df 0501
00000090: fd0c f9ff f3f7 fbf2 02e7 f3fb 0406 03dd
000000a0: fa05 0bfc 16f3 ff04 00ef 0607 fc1e 07f1
000000b0: f3f1 0cd4 d400 00f6 00e7 0305 d9ef b6f4
000000c0: dbfd ff06 05fb dffd fc02 06da d003 1201
000000d0: 09fc 0907 0b03 ffff 04e8 0a00 ed01 0021
000000e0: 03fe e702 0d04 0701 0efc 06fd 08f4 cc05
000000f0: 0302 f601 f301 f8e4 f103 0001 0f05 db12

sequential/batch_normalization_2/batchnorm/mul_1;sequential/batch_normalization_2/batchnorm/add_1;sequential/dense_3/MatMul;sequential/dense_3/BiasAdd i1 [18, 64] scale=0.00430316 zero_point=0
-0.04733476 -0.12909481 -0.1936422 0.11618532 -0.1936422 0.00860632 -0.107579 -0.00860632
-0.111882165 0.00860632 -0.09036636 -0.107579 -0.24958329 0.00430316 -0.13770112 -0.043031603
0.00860632 -0.111882165 -0.01721264 -0.15921693 0.077456884 -0.15491377 0.14630744 -0.124791645
-0.14630744 -0.043031603 0.22376433 -0.05163792 -0.124791645 -0.1936422 0.22806749 -0.064547405
0.03012212 -0.00860632 0.23237064 -0.09036636 0.25388646 -0.01721264 -0.09466952 -0.07315372
0.19794537 0.24528013 0.07315372 -0.10327584 -0.043031603 -0.05163792 -0.107579 -0.04733476
-0.038728442 -0.15061061 -0.12909481 -0.08176004 -0.064547405 -0.17642957 -0.20224853 -0.16352008
-0.09036636 0.18503588 0.13770112 0.06024424 0.2710991 0.00860632 -0.11618532 0.098972686
-0.01721264 -0.098972686 -0.107579 -0.043031603 -0.07315372 -0.064547405 -0.00860632 0.16782324
0.13339797 0.30122122 -0.14630744 -0.15491377 -0.07315372 -0.15491377 -0.20655169 -0.1936422
0.0 -0.08176004 0.22806749 -0.10327584 -0.077456884 -0.16782324 0.14200428 -0.15491377
-0.22376433 -0.17212641 -0.08176004 -0.13770112 -0.09036636 -0.1936422 -0.01290948 0.20655169
-0.06885056 0.18503588 -0.02581896 -0.086063206 -0.15921693 -0.13770112 -0.21085484 -0.09466952
0.064547405 -0.098972686 0.09466952 -0.21085484 -0.09466952 0.2366738 -0.03442528 0.021515802
0.17642957 0.18933904 -0.09466952 -0.12048848 -0.11618532 -0.077456884 -0.111882165 -0.18503588
0.12909481 -0.086063206 -0.111882165 0.16782324 -0.038728442 0.086063206 0.01721264 -0.06885056
0.18073273 -0.16352008 0.16782324 -0.09466952 0.16782324 -0.14630744 0.098972686 -0.12909481
0.08176004 -0.038728442 -0.12909481 0.11618532 -0.043031603 -0.04733476 0.107579 -0.01721264
0.10327584 -0.24097696 -0.08176004 -0.1936422 0.021515802 -0.215158 0.02581896 -0.17212641
-0.20655169 -0.15491377 0.107579 0.16782324 -0.064547405 0.20655169 -0.098972686 -0.15061061
0.064547405 -0.12909481 0.16352008 -0.25388646 -0.02581896 -0.17642957 -0.215158 -0.15061061
0.086063206 -0.15921693 0.055941083 -0.111882165 0.01290948 0.15921693 0.00430316 0.12048848
-0.06024424 0.098972686 -0.06885056 -0.098972686 -0.14200428 -0.06885056 0.15061061 -0.22376433
0.06885056 0.021515802 0.01721264 0.14630744 -0.13339797 0.03442528 -0.14200428 -0.07315372
-0.111882165 -0.124791645 -0.37867808 -0.107579 -0.08176004 0.055941083 -0.18933904 -0.22376433
-0.14630744 0.16352008 -0.00430316 -0.24097696 0.20655169 -0.17642957 -0.06024424 0.055941083
-0.04733476 0.16352008 0.11618532 0.13339797 0.086063206 -0.16782324 -0.15491377 0.124791645
-0.00430316 0.06885056 -0.055941083 -0.09466952 0.111882165 0.2797054 -0.13339797 -0.055941083
-0.20655169 0.077456884 0.21085484 0.25818962 -0.12048848 0.12909481 -0.124791645 -0.08176004
-0.04733476 0.16352008 -0.111882165 -0.16782324 0.11618532 -0.10327584 0.13770112 0.08176004
-0.08176004 -0.07315372 0.14630744 0.12909481 -0.215158 -0.03442528 0.14630744 0.064547405
-0.07315372 -0.11618532 -0.18073273 -0.04733476 0.15921693 -0.14630744 -0.16782324 -0.03442528
00000000: f5e2 d31b d302 e7fe e602 ebe7 c601 e0f6
00000010: 02e6 fcdb 12dc 22e3 def6 34f4 e3d3 35f1
00000020: 07fe 36eb 3bfc eaef 2e39 11e8 f6f4 e7f5
00000030: f7dd e2ed f1d7 d1da eb2b 200e 3f02 e517
00000040: fce9 e7f6 eff1 fe27 1f46 dedc efdc d0d3
00000050: 00ed 35e8 eed9 21dc ccd8 ede0 ebd3 fd30
00000060: f02b faec dbe0 cfea 0fe9 16cf ea37 f805
00000070: 292c eae4 e5ee e6d5 1eec e627 f714 04f0
00000080: 2ada 27ea 27de 17e2 13f7 e21b f6f5 19fc
00000090: 18c8 edd3 05ce 06d8 d0dc 1927 f130 e9dd
000000a0: 0fe2 26c5 fad7 cedd 14db 0de6 0325 011c
000000b0: f217 f0e9 dff0 23cc 1005 0422 e108 dfef
000000c0: e6e3 a8e7 ed0d d4cc de26 ffc8 30d7 f20d
000000d0: f526 1b1f 14d9 dc1d ff10 f3ea 1a41 e1f3
000000e0: d012 313c e41e e3ed f526 e6d9 1be8 2013
000000f0: edef 221e cef8 220f efe5 d6f5 25de d9f8

sequential/dense/MatMul i1 [256, 63] scale=0.023752946 zero_point=0
-0.07125884 0.047505893 -0.07125884 -0.14251769 0.07125884 -0.023752946 0.0 -0.07125884
-0.023752946 -0.11876473 0.023752946 0.07125884 0.023752946 -0.095011786 0.095011786 0.023752946
-0.095011786 -0.07125884 0.023752946 -0.023752946 -0.07125884 0.095011786 -0.095011786 0.07125884
-0.095011786 0.095011786 -0.095011786 0.023752946 -0.023752946 0.14251769 0.07125884 -0.07125884
0.047505893 -0.11876473 0.095011786 0.0 0.0 -0.11876473 0.047505893 0.095011786
0.0 0.11876473 0.047505893 -0.023752946 -0.11876473 0.07125884 0.11876473 0.11876473
-0.11876473 -0.07125884 0.023752946 -0.095011786 -0.047505893 -0.047505893 0.047505893 0.023752946
-0.023752946 -0.095011786 -0.023752946 -0.11876473 -0.095011786 -0.047505893 0.095011786 0.11876473
0.095011786 -0.07125884 -0.023752946 0.0 0.095011786 -0.11876473 -0.07125884 -0.07125884
-0.07125884 -0.095011786 -0.047505893 0.047505893 -0.047505893 0.07125884 -0.07125884 -0.095011786
0.023752946 0.095011786 -0.11876473 0.0 -0.14251769 -0.095011786 0.047505893 -0.023752946
0.023752946 0.047505893 -0.07125884 0.095011786 0.0 -0.07125884 0.095011786 -0.14251769
0.11876473 0.07125884 -0.11876473 0.047505893 -0.095011786 0.11876473 -0.047505893 0.023752946
0.047505893 -0.07125884 -0.07125884 0.11876473 0.095011786 -0.07125884 -0.14251769 -0.023752946
0.047505893 0.023752946 0.07125884 0.0 0.07125884 -0.11876473 0.047505893 0.047505893
-0.023752946 -0.023752946 0.095011786 0.0 -0.047505893 -0.11876473 0.095011786 -0.095011786
0.07125884 -0.14251769 -0.14251769 0.095011786 -0.07125884 0.07125884 0.0 -0.07125884
-0.023752946 0.07125884 -0.07125884 0.07125884 -0.095011786 0.07125884 0.0 0.0
0.047505893 0.095011786 0.0 -0.07125884 -0.095011786 0.14251769 -0.023752946 -0.095011786
0.047505893 0.095011786 0.047505893 -0.07125884 -0.095011786 0.07125884 0.07125884 -0.047505893
-0.14251769 -0.023752946 -0.047505893 0.07125884 -0.07125884 -0.14251769 -0.023752946 0.07125884
-0.095011786 -0.07125884 0.095011786 0.11876473 -0.047505893 0.047505893 0.047505893 0.023752946
-0.11876473 -0.07125884 -0.023752946 -0.047505893 -0.07125884 0.047505893 -0.023752946 -0.047505893
0.0 -0.047505893 0.047505893 -0.11876473 0.07125884 -0.14251769 -0.11876473 -0.047505893
0.023752946 -0.047505893 0.28503537 -0.14251769 -0.07125884 0.047505893 -0.023752946 0.023752946
0.23752946 -0.14251769 -0.14251769 0.21377651 0.023752946 -0.047505893 0.023752946 -0.047505893
-0.047505893 -0.095011786 0.0 -0.023752946 -0.07125884 -0.21377651 0.19002357 -0.023752946
0.0 -0.19002357 -0.11876473 0.047505893 -0.14251769 -0.047505893 0.07125884 -0.047505893
0.047505893 -0.047505893 -0.047505893 0.19002357 -0.14251769 0.0 0.07125884 0.023752946
0.07125884 -0.023752946 -0.14251769 -0.16627063 0.023752946 -0.16627063 -0.2612824 -0.095011786
0.0 -0.14251769 0.07125884 -0.023752946 0.047505893 0.07125884 -0.07125884 0.0
-0.023752946 0.023752946 0.023752946 0.07125884 0.0 0.023752946 -0.095011786 0.047505893
00000000: fd02 fdfa 03ff 00fd fffb 0103 01fc 0401
00000010: fcfd 01ff fd04 fc03 fc04 fc01 ff06 03fd
00000020: 02fb 0400 00fb 0204 0005 02ff fb03 0505
00000030: fbfd 01fc fefe 0201 fffc fffb fcfe 0405
00000040: 04fd ff00 04fb fdfd fdfc fe02 fe03 fdfc
00000050: 0104 fb00 fafc 02ff 0102 fd04 00fd 04fa
00000060: 0503 fb02 fc05 fe01 02fd fd05 04fd faff
00000070: 0201 0300 03fb 0202 ffff 0400 fefb 04fc
00000080: 03fa fa04 fd03 00fd ff03 fd03 fc03 0000
00000090: 0204 00fd fc06 fffc 0204 02fd fc03 03fe
000000a0: faff fe03 fdfa ff03 fcfd 0405 fe02 0201
000000b0: fbfd fffe fd02 fffe 00fe 02fb 03fa fbfe
000000c0: 01fe 0cfa fd02 ff01 0afa fa09 01fe 01fe
000000d0: fefc 00ff fdf7 08ff 00f8 fb02 fafe 03fe
000000e0: 02fe fe08 fa00 0301 03ff faf9 01f9 f5fc
000000f0: 00fa 03ff 0203 fd00 ff01 0103 0001 fc02
