MLtrain/models/gesture_dynamic_quant.tflite (tflite, 67880 bytes, 14 tensors)

arith.constant f4 [1, 64]
-0.32370967 -0.19798297 -0.22740382 -0.2132015 -0.18945712 -0.19128177 -0.15600878 -0.12941882
-0.18902686 -0.18097389 -0.19811133 -0.16326982 -0.12766102 -0.18832052 -0.16560951 -0.23972803
-0.16124395 -0.20076418 -0.22409905 -0.15590653 -0.20372462 -0.21613243 -0.20153499 -0.2502106
-0.13679394 -0.22868794 -0.19291487 -0.25356814 -0.20460379 -0.12608811 -0.124642015 -0.18593478
-0.27957296 -0.3060812 -0.130178 -0.16841999 -0.16675134 -0.2345334 -0.13506335 -0.15877378
-0.18462673 -0.14539017 -0.21803609 -0.13592231 -0.19348755 -0.17261371 -0.23777232 -0.13011926
-0.30175728 -0.21073031 -0.21285987 -0.16585815 -0.12898725 -0.25611988 -0.12496388 -0.1732248
-0.33396816 -0.16228387 -0.2638765 -0.18335322 -0.2095106 -0.19125015 -0.21176592 -0.14996399
00000000: 46bd a5be 0cbc 4abe 8cdc 68be 7e51 5abe
00000010: 0c01 42be 5edf 43be c4c0 1fbe 5e86 04be
00000020: 4290 41be 3851 39be b2dd 4abe 3430 27be
00000030: 92b9 02be 18d7 40be 8a95 29be 447b 75be
00000040: 221d 25be 2095 4dbe 397a 65be f6a5 1fbe
00000050: 309d 50be d251 5dbe 305f 4ebe 9b1b 80be
00000060: b613 0cbe 2c2d 6abe 7a8b 45be afd3 81be
00000070: a883 51be 3e1d 01be 5044 ffbd b065 3ebe
00000080: 3024 8fbe adb6 9cbe 624d 05be 4a76 2cbe
00000090: ddc0 2abe 8629 70be 0c4e 0abe 9895 22be
000000a0: ca0e 3dbe 29e1 14be da44 5fbe 382f 0bbe
000000b0: 9a21 46be a6c1 30be 967a 73be fc3d 05be
000000c0: ee7f 9abe b0c9 57be f0f7 59be b8d6 29be
000000d0: 3c15 04be 2522 83be 10ed ffbd d861 31be
000000e0: e0fd aabe be2d 26be d21a 87be f2c0 3bbe
000000f0: f289 56be 14d7 43be 2ad9 58be 2990 19be

arith.constant1 f4 [1, 64]
0.41974297 0.488692 0.98642313 0.37225267 0.5137899 0.49534512 0.39522514 0.51519823
0.42538017 0.6715291 0.43691424 0.559815 0.7132075 0.54437745 0.4525775 0.39691532
0.4363137 0.4986307 0.49320266 0.5244158 0.42933732 0.55800366 0.47127697 0.4808571
0.4548443 0.4333255 0.46415335 0.44868907 0.3815845 0.7081044 0.5140633 0.5016432
0.4811154 0.45304453 0.60151446 0.8170727 0.67732877 0.44796047 0.5115633 0.44587523
0.5336112 0.58693683 0.3748692 0.5185904 0.6943194 0.53878295 0.4462391 0.45121092
0.47750986 0.47880182 0.4787094 0.49035317 0.49281693 0.4468836 0.549349 0.48951566
0.40814638 0.56025213 0.412974 0.63807535 0.46295798 0.59141594 0.6980172 0.4590999
00000000: 8de8 d63e d635 fa3e 3a86 7c3f e797 be3e
00000010: bc87 033f e09d fd3e f35a ca3e 08e4 033f
00000020: 6ecb d93e 55e9 2b3f 39b3 df3e 0950 0f3f
00000030: c494 363f 525c 0b3f 3db8 e73e 7c38 cb3e
00000040: 8264 df3e 864c ff3e 0f85 fc3e 1d40 063f
00000050: 1ad2 db3e 54d9 0e3f 374b f13e e732 f63e
00000060: 5ae1 e83e d7dc dd3e 82a5 ed3e 93ba e53e
00000070: 0b5f c33e 5446 353f a799 033f b06b 003f
00000080: c254 f63e 74f5 e73e dafc 193f ad2b 513f
00000090: 6b65 2d3f 135b e53e d0f5 023f c249 e43e
000000a0: be9a 083f 7e41 163f dbee bf3e 57c2 043f
000000b0: ebbe 313f aeed 093f 7479 e43e 1e05 e73e
000000c0: 2c7c f43e 8325 f53e 6619 f53e 920f fb3e
000000d0: 8052 fc3e edcd e43e 23a2 0c3f cca1 fa3e
000000e0: 90f8 d03e af6c 0f3f 5471 d33e e858 233f
000000f0: d408 ed3e 0967 173f 41b1 323f 240f eb3e

arith.constant2 f4 [1, 256]
-0.0055299113 0.0026826037 -0.004655394 0.002358306 -0.002496177 -0.47508287 -0.007826498 -0.00383981
-0.0057760878 0.00808392 0.011884301 -0.0074909916 -0.0014909593 -0.01496023 -0.012400508 -0.2743292
-0.0012702856 -0.0019936222 2.9901654e-05 -0.034124076 0.003413442 0.0020928632 0.009331145 0.008865677
0.0027366956 -0.0048530633 -0.009438422 0.0012650958 0.005640288 0.0021021827 0.0011534184 -0.0019251831
-0.0010107656 -0.015184216 -0.0020620585 0.006801789 -0.0087413555 -0.17246127 -0.26088485 -0.006424858
0.0040758247 -0.43129417 0.004026271 0.0016447406 -0.006332027 0.005214184 -0.24460989 -0.18625778
-0.2568926 0.0048161657 -0.0029129225 -0.003614989 0.0020319081 0.012948996 0.00055864424 0.0024061012
-0.014248522 -0.0030842437 -0.29073474 -0.0018704219 -0.6100107 0.0031370847 -0.0013017649 -0.21963793
-0.0040746755 -0.0048346743 -0.010874259 -0.0029289406 -0.0048976215 0.0038522035 -0.30462745 0.0031735874
-0.006543588 -0.016074067 -0.0068772915 -0.00701561 0.01056512 -0.01138482 -0.09702915 0.013447454
0.0015871228 -0.012786274 -0.00255059 -0.0022522863 -0.00095671293 0.00044057623 -0.19534436 -0.010502476
-0.0035116654 -0.003832232 0.0027518382 -0.38212702 0.0003708222 -0.22515061 0.0027168607 -0.2366459
-0.003864508 -0.003500687 -0.0035751872 0.0106988875 -0.0035986744 0.009956045 -0.0011452618 -0.0045111235
0.013613209 -0.002298068 0.00036788054 -0.3696187 0.003495586 -0.011819133 -0.00049019855 -0.15844777
-0.00530606 0.0052415617 -0.25402176 0.022294953 0.002459616 0.024582462 -0.0078074923 -0.007928426
0.002755752 0.0011515606 -0.014439748 0.0076915105 0.005097017 -0.34284642 0.0012957059 -0.005364655
-0.0010520896 0.0031515204 -0.005558345 0.007510797 0.0014179749 -0.0026974704 0.003844502 0.0045376513
0.0049741114 0.004493634 -0.0055164658 -0.22128773 -0.20501405 0.009329425 0.012691354 -0.00023560121
-0.0040179193 0.0016421556 0.013464231 0.0019422 -0.0012784615 -0.3661105 -0.006178287 0.00029814267
-0.0024279747 -0.0075945114 0.0047585065 0.0036547312 -0.013672238 0.0015345061 0.00012653017 -0.008971323
0.000778555 0.027936947 -0.00064817467 -0.0043693692 0.0022895923 0.0003911343 -0.0011350748 0.00010342481
-0.007736827 -0.019986236 0.0074863937 -0.004303463 0.0013249781 -0.0054611387 0.0016494909 0.008659178
0.004116639 -0.003816982 0.0032793062 0.004777361 -0.008536197 -0.003689787 0.002211627 0.0072754323
-0.0078098974 -0.00644459 -0.007015949 -0.008087423 0.0033853739 0.009880223 -0.006976822 0.0019481446
-0.0146189155 0.002309177 -0.008010668 -0.0020051526 0.00031568066 -0.0017599047 -0.27278376 0.022214422
0.0023775683 0.0037491568 0.006412869 -0.0026285884 -0.018756457 -0.19157565 -0.0031589488 -0.39531404
0.008608929 0.0007800834 0.0059868637 0.016643636 -0.0015807127 0.00017070037 -0.003104048 0.0045919674
-0.33632216 -0.006857084 0.0076681133 -0.00026123322 -0.0013747484 0.013306229 0.0069194394 0.009584859
0.015432132 -0.0012851938 -0.23183191 0.0035591116 0.00069157954 -0.0050469646 0.0018352832 0.007381279
0.01106406 0.009434661 -0.004747396 -0.002037718 -0.0025878933 -0.014471978 0.00861175 -0.0114045255
0.002354399 -0.0006036889 0.009411362 -0.013645807 -0.0022215499 -0.006485444 0.0025235482 -0.00027502023
-0.018137494 -0.005156757 -0.009159709 -0.3446179 0.0035429224 -0.30537647 -0.09099744 0.004077673
00000000: 4234 b5bb 9fce 2f3b 468c 98bb cf8d 1a3b
00000010: e796 23bb 103e f3be b63a 00bc 52a5 7bbb
00000020: 5645 bdbb 6b72 043c 5fb6 423c fe76 f5bb
00000030: 4b6c c3ba c11b 75bc 802b 4bbc e074 8cbe
00000040: b67f a6ba 6ea7 02bb 50d5 fa37 b0c5 0bbd
00000050: 0eb4 5f3b 6b28 093b a9e1 183c 5841 113c
00000060: 225a 333b 7206 9fbb 9ca3 1abc 92d1 a53a
00000070: 2ad2 b83b c6c4 093b 4d2e 973a 6d56 fcba
00000080: aa7b 84ba 38c7 78bc 9a23 07bb 8be1 de3b
00000090: e737 0fbc b099 30be b392 85be 9d87 d2bb
000000a0: 7f8e 853b 97d2 dcbe cfee 833b 5694 d73a
000000b0: e47c cfbb bfdb aa3b 047b 7abe 5cba 3ebe
000000c0: 6d87 83be edd0 9d3b bbe6 3ebb 74e9 6cbb
000000d0: c329 053b 0728 543c fb71 123a aeaf 1d3b
000000e0: a272 69bc 0621 4abb 2fdb 94be f228 f5ba
000000f0: a929 1cbf 8c97 4d3b fb9f aaba c4e8 60be
00000100: db84 85bb 306c 9ebb f329 32bc 78f3 3fbb
00000110: 3a7c a0bb 4075 7c3b 21f8 9bbe f6fb 4f3b
00000120: 986b d6bb c3ad 83bc e75a e1bb 34e3 e5bb
00000130: 5319 2d3c 6587 3abc 38b7 c6bd b652 5c3c
00000140: 0107 d03a 857d 51bc cd27 27bb 189b 13bb
00000150: ebcb 7aba 24fd e639 5a08 48be 9412 2cbc
00000160: f823 66bb 2f26 7bbb 2f58 343b 27a6 c3be
00000170: ea6a c239 e28d 66be 5c0d 323b 4e53 72be
00000180: af43 7dbb c86b 65bb b04d 6abb 634a 2f3c
00000190: bdd7 6bbb ae1e 233c 9c1c 96ba 0cd2 93bb
000001a0: f009 5f3c 2f9b 16bb 17e0 c039 aa3e bdbe
000001b0: 3416 653b 09a5 41bc ab80 00ba 2240 22be
000001c0: 75de adbb 68c1 ab3b 240f 82be e8a3 b63c
000001d0: 8231 213b 2961 c93c fed5 ffbb 3be6 01bc
000001e0: d999 343b f6ef 963a b194 6cbc 1109 fc3b
000001f0: e104 a73b 9189 afbe add4 a93a fdc9 afbb
00000200: 45e6 89ba bd89 4e3b c722 b6bb 221d f63b
00000210: 58db b93a 0bc8 30bb 0af4 7b3b 94b0 943b
00000220: dffd a23b 563f 933b 78c3 b4bb 4099 62be
00000230: 34ef 51be 72da 183c 66ef 4f3c b80b 77b9
00000240: c0a8 83bb 993d d73a 1499 5c3c 6b91 fe3a
00000250: 0d92 a7ba d672 bbbe 3a73 cabb 0850 9c39
00000260: a81e 1fbb 61db f8bb 3fed 9b3b 3784 6f3b
00000270: 8601 60bc 7b21 c93a 2fad 0439 75fc 12bc
00000280: f117 4c3a 06dc e43c 44ea 29ba ed2c 8fbb
00000290: fc0c 163b 2811 cd39 cac6 94ba c6e5 d838
000002a0: 3585 fdbb 2dba a3bc 6c50 f53b 1004 8dbb
000002b0: e3aa ad3a 5af3 b2bb bb33 d83a 3adf 0d3c
000002c0: dfe4 863b 5526 7abb a1e9 563b 698b 9c3b
000002d0: 68db 0bbc 5ad0 71bb f2f0 103b c066 ee3b
000002e0: 2bea ffbb 242d d3bb 0ce6 e5bb 1c81 04bc
000002f0: 26dd 5d3b a9e0 213c d39d e4bb e358 ff3a
00000300: 2d84 6fbc 9055 173b 2d3f 03bc e168 03bb
00000310: f181 a539 9aac e6ba 50aa 8bbe 05fb b53c
00000320: fad0 1b3b 6ab4 753b 0b23 d23b 6544 2cbb
00000330: 24a7 99bc 682c 44be 5e06 4fbb 9a66 cabe
00000340: 770c 0d3c 837e 4c3a 742d c43b 3c58 883c
00000350: eb2f cfba 08fe 3239 496d 4bbb 3778 963b
00000360: 6b32 acbe 64b1 e0bb cc44 fb3b 21f6 88b9
00000370: e730 b4ba 5f02 5a3c 77bc e23b d009 1d3c
00000380: 0ed7 7c3c f373 a8ba 5865 6dbe fc3f 693b
00000390: 1e4b 353a 0261 a5bb e38d f03a a8de f13b
000003a0: 0846 353c d693 1a3c 0b90 9bbb 3c8b 05bb
000003b0: a599 29bb e01b 6dbc 4c18 0d3c 0cda 3abc
000003c0: 434c 1a3b e040 1eba 1d32 1a3c aa92 5fbc
000003d0: 6c97 11bb d983 d4bb 1d62 253b 9730 90b9
000003e0: 1595 94bc 03fa a8bb 9b12 16bc c271 b0be
000003f0: 6030 683b 4e5a 9cbe de5c babd 009e 853b

arith.constant3 f4 [1, 256]
31.622776 31.465183 31.26865 32.30039 30.40986 11.151556 35.848183 31.820694
24.901033 31.966349 28.565794 30.312714 32.70316 32.14139 31.064255 8.4406595
31.622776 32.03272 27.831026 6.92977 31.255909 31.622776 30.278122 31.062363
33.066277 33.544327 28.700783 30.912651 34.565582 32.349438 29.194172 29.627968
31.622776 30.764727 33.521275 37.806545 29.598679 7.3891916 4.965814 31.470446
33.54414 2.1462653 31.757257 31.033033 29.314224 31.455645 16.659143 3.5357037
5.6800637 31.591202 35.2448 28.570974 31.43202 31.493828 32.348095 32.287918
21.96734 30.368952 6.8170943 28.782467 1.2243751 31.231167 30.901709 3.743315
31.982 31.491493 27.012136 34.28725 31.253777 32.20678 6.6249375 31.39707
30.699131 31.622776 29.18024 31.306963 27.799107 29.069998 4.1398644 31.622776
32.54336 31.76958 28.774677 33.9344 31.125443 31.162706 4.453775 33.43679
31.01413 31.0529 32.094574 4.035183 31.43664 5.392692 31.622776 6.097247
30.60208 27.92767 30.82469 32.304996 31.288982 35.11442 28.977665 31.622776
29.679705 30.721134 31.857733 8.261437 31.361322 29.663645 30.928026 3.7760775
28.425257 24.800041 8.371549 34.214325 30.171682 31.43635 26.771612 30.637232
30.619371 33.338326 34.24433 24.08902 29.164375 9.225958 29.653254 29.744425
30.102654 31.030018 29.470745 30.739708 29.761457 30.954721 20.676413 30.96299
28.785965 29.505205 29.931944 4.411146 8.029057 36.364025 31.324804 19.266468
29.639915 30.492056 28.528185 34.3384 31.78832 13.0715685 31.454138 29.71491
28.743948 31.306654 39.16436 29.606134 31.622776 31.1666 30.645973 29.037077
30.782406 31.847935 30.779503 39.504368 28.546886 28.45386 33.17277 33.7751
28.632751 29.276522 31.26655 32.368755 35.023964 33.34099 31.622776 20.58242
20.49344 27.844128 29.66691 30.272074 21.693707 30.661604 31.936852 31.622776
28.906868 32.089027 23.937733 25.853731 31.265457 30.914574 29.82508 30.642632
31.622776 31.397486 31.408785 30.27774 29.802914 28.327164 7.1581254 28.435215
24.535631 36.24146 25.422005 31.148256 30.522558 10.363076 31.622776 10.079003
31.27596 32.51815 31.304693 30.121756 30.87878 32.245216 31.447763 19.694445
2.5797713 32.864895 19.431807 27.347414 31.43588 31.622776 26.746643 31.622776
32.80391 26.628616 8.729741 31.019415 30.948399 31.622776 29.49285 31.316244
29.067165 31.381464 30.854742 30.646454 31.459808 31.303362 29.749931 34.20101
30.419964 29.598162 29.25923 17.955467 30.559425 23.779266 30.940603 31.30275
30.871283 30.695242 32.26171 9.741677 29.985828 11.718745 3.4200728 31.82561
00000000: 72fb fc41 b2b8 fb41 3226 fa41 9933 0142
00000010: 6547 f341 c66c 3241 8a64 0f42 c890 fe41
00000020: 5135 c741 15bb ff41 bf86 e441 7080 f241
00000030: 09d0 0242 c990 0042 9883 f841 f10c 0741
00000040: 72fb fc41 8121 0042 f1a5 de41 adc0 dd40
00000050: 1a0c fa41 72fb fc41 9839 f241 b87f f841
00000060: de43 0442 642d 0642 349b e541 1c4d f741
00000070: 2843 0a42 d365 0142 aa8d e941 1406 ed41
00000080: 72fb fc41 291e f641 c915 0642 e739 1742
00000090: 18ca ec41 4274 ec40 f3e7 9e40 79c3 fb41
000000a0: 332d 0642 695c 0940 dd0e fe41 a743 f841
000000b0: 8883 ea41 29a5 fb41 ed45 8541 f848 6240
000000c0: 15c3 b540 c8ba fc41 adfa 0c42 5b91 e441
000000d0: c774 fb41 5cf3 fb41 7364 0142 d426 0142
000000e0: 1dbd af41 9df3 f241 a325 da40 7e42 e641
000000f0: 53b8 9c3f 6ed9 f941 b336 f741 7992 6f40
00000100: 23db ff41 94ee fb41 db18 d841 2526 0942
00000110: bc07 fa41 bed3 0042 7dff d340 332d fb41
00000120: d297 f541 72fb fc41 2271 e941 a974 fa41
00000130: 9264 de41 5b8f e841 c579 8440 72fb fc41
00000140: 672c 0242 1a28 fe41 8a32 e641 d3bc 0742
00000150: e800 f941 394d f941 5385 8e40 46bf 0542
00000160: f01c f841 576c f841 d860 0042 3820 8140
00000170: 3d7e fb41 ef90 ac40 72fb fc41 a61c c340
00000180: 0fd1 f441 de6b df41 f798 f641 5138 0142
00000190: d64f fa41 2b75 0c42 42d2 e741 72fb fc41
000001a0: 0970 ed41 e2c4 f541 a3dc fe41 d92e 0441
000001b0: fde3 fa41 254f ed41 996c f741 41ab 7140
000001c0: ed66 e341 7c66 c641 ddf1 0541 78db 0842
000001d0: 9b5f f141 a57d fb41 432c d641 0d19 f541
000001e0: 79f4 f441 725a 0542 32fa 0842 50b6 c041
000001f0: a450 e941 869d 1341 dd39 ed41 95f4 ed41
00000200: 3cd2 f041 7a3d f841 16c4 eb41 ecea f541
00000210: 7717 ee41 45a3 f741 4b69 a541 34b4 f741
00000220: a849 e641 a90a ec41 9f74 ef41 1c28 8d40
00000230: 0477 0041 c374 1142 3399 fa41 ba21 9a41
00000240: 8c1e ed41 bbef f341 b939 e441 865a 0942
00000250: 7b4e fe41 2525 5141 13a2 fb41 23b8 ed41
00000260: 9bf3 e541 0774 fa41 4ea8 1c42 5dd9 ec41
00000270: 72fb fc41 3255 f941 f42a f541 ef4b e841
00000280: 5e42 f641 92c8 fe41 6c3c f641 7904 1e42
00000290: 0660 e441 81a1 e341 ebb0 0442 b419 0742
000002a0: e00f e541 5136 ea41 e521 fa41 9b79 0142
000002b0: 8a18 0c42 2c5d 0542 72fb fc41 cca8 a441
000002c0: 91f2 a341 c6c0 de41 d555 ed41 352d f241
000002d0: b68c ad41 f74a f541 ac7e ff41 72fb fc41
000002e0: 4441 e741 2a5b 0042 7a80 bf41 71d4 ce41
000002f0: a81f fa41 0c51 f741 c499 ee41 1c24 f541
00000300: 72fb fc41 0d2e fb41 3145 fb41 d038 f241
00000310: 5e6c ee41 089e e241 5d0f e540 527b e341
00000320: f948 c441 41f7 1042 4460 cb41 a12f f941
00000330: 332e f441 29cf 2541 72fb fc41 9943 2141
00000340: 2b35 fa41 9612 0242 0370 fa41 5bf9 f041
00000350: be07 f741 1afb 0042 0595 fb41 398e 9d41
00000360: f91a 2540 a775 0342 5774 9b41 81c7 da41
00000370: af7c fb41 72fb fc41 20f9 d541 72fb fc41
00000380: 3437 0342 6807 d541 05ad 0b41 c327 f841
00000390: 5296 f741 72fb fc41 5bf1 eb41 ab87 fa41
000003a0: 8e89 e841 3d0d fb41 83d6 f641 f02b f541
000003b0: b0ad fb41 496d fa41 dcff ed41 d6cd 0842
000003c0: 165c f341 09c9 ec41 e712 ea41 cca4 8f41
000003d0: b479 f441 f03b be41 5b86 f741 086c fa41
000003e0: 63f8 f641 db8f f541 fe0b 0142 e9dd 1b41
000003f0: fae2 ef41 fb7f 3b41 79e2 5a40 d99a fe41

arith.constant4 f4 [1, 128]
-0.35327914 -0.35026303 -0.24953283 -0.31496617 -0.38886243 -0.3700143 -0.57824004 -0.27338704
-0.6328938 -0.11495358 -0.44130367 -0.27854046 -0.34923518 -0.1385999 -0.20737787 -0.3984459
-0.18309623 -0.28729826 -0.18305264 -0.30000854 -0.311304 -0.2643262 -0.084202945 -0.5076012
-0.18457127 -0.28383288 -0.35319132 -0.44925278 -0.2264385 -0.35579297 -0.19835472 -0.46167767
-0.120057225 -0.19754973 -0.37724483 -0.57766587 -0.36262217 -0.09486529 -0.30351448 -0.2088429
-0.42993176 -0.24166541 -0.36011118 -0.4014832 -0.22609442 -0.6507454 -0.6136364 -0.5279893
-0.15063593 -0.22603472 -0.10564163 -0.24371985 -0.2189863 -0.3651504 -0.23050815 -0.27752745
-0.23494458 -0.16495144 -0.11607906 -0.24051297 -0.3056866 -0.24695158 -0.09589574 -0.13459703
-0.56147313 -0.10483402 -0.19814584 -0.710206 -0.47262728 -0.25572938 -0.33384666 -0.12868756
-0.20454644 -0.21296129 -0.48975086 -0.5038395 -0.05506745 -0.73999226 -0.33173776 -0.88302344
-0.6132893 -0.4380303 -0.7205006 -0.5195267 -0.8536962 -0.52999747 -0.2684319 -0.28651112
-0.36760882 -0.5566677 -0.5505624 -0.11136377 0.007907301 -0.62412727 -0.3582813 -0.44615746
-0.3247788 -0.30041933 -0.31242618 -0.12784716 -0.23428074 -0.34442663 -0.37082297 -0.2865885
-0.48589316 -0.21034312 -0.77519774 -0.3505689 -0.32575193 -0.17317009 -0.28048024 -0.5896357
-0.20003366 -0.24945772 -0.2921439 -0.42086858 -0.6933844 -0.5501621 -0.39579365 -0.15914786
-0.15590104 -0.5639587 -0.22057971 -0.33901823 -0.6423036 -0.498788 -0.22232932 -0.41614088
00000000: 01e1 b4be ad55 b3be 8985 7fbe 3f43 a1be
00000010: fa18 c7be 8472 bdbe 8a07 14bf 63f9 8bbe
00000020: 5405 22bf c86c ebbd 8ef2 e1be db9c 8ebe
00000030: f4ce b2be 22ed 0dbe dd5a 54be 1a01 ccbe
00000040: 947d 3bbe c218 93be 2772 3bbe b89a 99be
00000050: 3d63 9fbe c455 87be 9872 acbd 27f2 01bf
00000060: 4000 3dbe 8b52 91be 7ed5 b4be 7604 e6be
00000070: 7fdf 67be 7f2a b6be 801d 4bbe 0461 ecbe
00000080: 90e0 f5bd 7a4a 4abe 3c26 c1be e9e1 13bf
00000090: 9da9 b9be bc48 c2bd 4066 9bbe eada 55be
000000a0: 0420 dcbe 2377 77be 7e60 b8be 358f cdbe
000000b0: 4c85 67be 4097 26bf 4617 1dbf 4f2a 07bf
000000c0: 4e40 1abe a575 67be a45a d8bd b291 79be
000000d0: f23d 60be fef4 babe 540a 6cbe 1418 8ebe
000000e0: 5095 70be 08e9 28be dcba edbd 0849 76be
000000f0: f482 9cbe e0e0 7cbe fc64 c4bd ced3 09be
00000100: b4bc 0fbf 38b3 d6bd bee6 4abe 0fd0 35bf
00000110: 34fc f1be f6ee 82be f3ed aabe acc6 03be
00000120: 9f74 51be 8612 5abe a0c0 fabe a0fb 00bf
00000130: 688e 61bd 2270 3dbf 88d9 a9be d30d 62bf
00000140: 8700 1dbf 8245 e0be ba72 38bf b4ff 04bf
00000150: d68b 5abf eaad 07bf e86f 89be 96b1 92be
00000160: 3937 bcbe c681 0ebf a8f1 0cbf b012 e4bd
00000170: a08d 013c cec6 1fbf a670 b7be c06e e4be
00000180: 6849 a6be 90d0 99be 53f6 9fbe 5eea 02be
00000190: 4ae7 6fbe b058 b0be 82dc bdbe babb 92be
000001a0: fdc6 f8be 3064 57be 5c73 46bf c47d b3be
000001b0: f5c8 a6be 8053 31be 1b9b 8fbe 5ef2 16bf
000001c0: a0d5 4cbe d871 7fbe e393 95be 167c d7be
000001d0: a481 31bf 6cd7 0cbf 77a5 cabe a8f7 22be
000001e0: 86a4 1fbe 995f 10bf a6df 61be cc93 adbe
000001f0: 026e 24bf 2461 ffbe 4caa 63be 6b10 d5be

arith.constant5 f4 [1, 128]
2.6164672 0.9181495 3.5589826 1.8157386 1.5547069 1.8973824 1.811125 2.8629775
2.4458628 1.2040234 2.942033 3.169484 3.6454768 1.7067901 1.854092 2.7225025
1.0058134 2.207721 1.795893 1.4200424 3.1638799 1.7387627 1.4468402 3.2746177
2.1620643 2.0285518 2.5437813 2.0479882 1.5486203 2.2306516 1.8738806 2.0857277
1.7059813 2.9717984 3.2710006 2.1205435 3.1309958 2.7835236 2.173395 1.3938158
2.2042685 2.3319752 2.02333 3.5635998 2.0253546 2.493214 2.2584536 1.8760378
1.218975 2.7560196 2.6923525 1.6060327 1.6802505 1.9419844 1.9224548 2.425044
1.4601187 1.8251895 2.0289888 2.0549784 1.7034339 1.6638176 2.765138 3.0680285
3.370272 2.8392694 2.1607423 2.2764826 2.8508747 1.7921885 3.8717155 2.260815
2.243152 1.1233343 0.86445194 1.7049167 3.8314185 2.4466975 4.0931435 1.5428417
1.92383 2.683591 2.5395045 1.2034148 2.6520386 2.5102766 1.5093073 2.5032685
2.3747904 2.384641 2.613088 1.7917609 5.363113 2.3224947 4.210338 3.3795028
1.1217874 1.5168592 1.0799481 1.7345507 2.983178 2.20176 2.5956373 1.1534011
3.3700192 2.3741395 2.5361094 2.106894 3.0831144 2.5115905 4.2233005 1.0992535
2.4265287 1.3527806 2.058148 1.5224797 1.6181352 1.9131204 2.9571598 1.5150325
2.1067638 1.667141 2.7877026 1.1530353 2.5334888 2.0686061 1.595588 2.6244183
00000000: 3374 2740 d80b 6b3f 5fc6 6340 1f6a e83f
00000010: a300 c73f 6ddd f23f f2d2 e73f 063b 3740
00000020: 0489 1c40 701d 9a3f 454a 3c40 d3d8 4a40
00000030: 7e4f 6940 1978 da3f e352 ed3f 7b3d 2e40
00000040: 7ebe 803f 4d4b 0d40 d2df e53f f3c3 b53f
00000050: 027d 4a40 c78f de3f 0f32 b93f 5693 5140
00000060: 435f 0a40 cbd3 0140 50cd 2240 3d12 0340
00000070: 3139 c63f ffc2 0e40 52db ef3f 907c 0540
00000080: 985d da3f f231 3e40 1358 5140 fcb6 0740
00000090: 3c62 4840 4025 3240 e718 0b40 8e68 b23f
000000a0: bc12 0d40 153f 1540 3d7e 0140 0512 6440
000000b0: 699f 0140 d190 1f40 818a 1040 0222 f03f
000000c0: 5f07 9c3f a062 3040 814f 2c40 7b92 cd3f
000000d0: 7312 d73f f292 f83f 0013 f63f ec33 1b40
000000e0: 2be5 ba3f cf9f e93f f4da 0140 c484 0340
000000f0: 1f0a da3f faf7 d43f 05f8 3040 945a 4440
00000100: 89b2 5740 97b6 3540 9a49 0a40 e4b1 1140
00000110: bb74 3640 6f66 e53f 30ca 7740 31b1 1040
00000120: cd8f 0f40 6bc9 8f3f b94c 5d3f b63a da3f
00000130: f635 7540 b196 1c40 08fb 8240 d67b c53f
00000140: 1040 f63f f4bf 2b40 3e87 2240 7f09 9a3f
00000150: 00bb 2940 5fa8 2040 fb30 c13f 8d35 2040
00000160: 91fc 1740 f59d 1840 d53c 2740 6c58 e53f
00000170: 9f9e ab40 c1a3 1440 17bb 8640 c649 5840
00000180: bb96 8f3f 7128 c23f bd3b 8a3f c205 de3f
00000190: 63ec 3e40 a3e9 0c40 ec1e 2640 a6a2 933f
000001a0: 65ae 5740 e7f1 1740 9e4f 2240 5ad7 0640
000001b0: bf51 4540 e6bd 2040 4725 8740 57b4 8c3f
000001c0: 3f4c 1b40 ea27 ad3f b2b8 0340 9de0 c23f
000001d0: 0e1f cf3f 21e1 f43f 1b42 3d40 96ec c13f
000001e0: 38d5 0640 e064 d53f b869 3240 a996 933f
000001f0: ae24 2240 0b64 0440 3a3c cc3f 78f6 2740

arith.constant6 f4 [128]
-0.039429262 0.4355999 -0.046493392 0.12676595 0.18167736 -0.08278928 0.20714472 -0.21598567
0.19479969 0.020013575 -0.13572463 -0.13770482 -0.102384366 -0.10046387 0.005430209 0.14129844
0.05928349 -0.31306717 -0.05608006 -0.10919715 -0.052165665 0.014412589 -0.114827946 0.12664676
-0.14818887 0.09461789 -0.057880383 -0.13528046 -0.21429633 -0.08835875 0.019955246 0.14009997
-0.11934127 -0.15494183 -0.09294984 0.29867002 -0.07826361 -0.17223123 -0.075217746 -0.10745924
0.2794608 -0.0583449 -0.009534072 -0.11125624 -0.15021299 0.42390236 0.41384265 0.24101397
0.06169237 -0.27631587 -0.13515341 -0.102934755 0.031510178 -0.0031497348 0.13221984 0.027224975
-0.027114283 -0.09722788 -0.05153464 0.14586885 0.12604755 0.19384117 -0.069676846 -0.13114297
0.27499324 -0.20337677 0.1597593 0.38940743 0.04095509 0.031059476 -0.14664295 -0.23965456
-0.09585855 0.049904365 0.27838477 0.14657739 -0.27091333 0.28094882 -0.20193273 0.5530019
0.5135281 -0.034006376 0.19903176 0.16227017 0.54509723 0.40766916 -0.14704396 -0.16702887
0.0544196 0.40584046 0.3102895 -0.010763087 -0.3774318 0.49243647 -0.1151532 0.12584448
0.5354169 -0.0017214038 0.44265446 0.16185337 -0.098865114 -0.08022847 0.05819254 0.048995357
-0.097779885 -0.074689046 0.42604733 -0.11641632 -0.272061 -0.078862555 -0.037993897 0.6715278
0.104954615 0.084216446 -0.20469324 0.34995732 0.3598676 0.5097518 -0.08572133 0.088968165
-0.13243964 0.29539147 -0.26485226 0.2731053 0.42901206 0.16581945 0.2345498 -0.05251076
00000000: 9480 21bd f306 df3e db6f 3ebd efce 013e
00000010: a109 3a3e 6d8d a9bd bf1d 543e 592b 5dbe
00000020: 9279 473e 82f3 a33c 66fb 0abe 7e02 0dbe
00000030: e5ae d1bd 00c0 cdbd e5ef b13b 8ab0 103e
00000040: 3fd3 723d 574a a0be 34b4 65bd c1a2 dfbd
00000050: aaab 55bd c822 6c3c ea2a ebbd b0af 013e
00000060: d3be 17be 06c7 c13d fb13 6dbd f686 0abe
00000070: 7f70 5bbe 6ff5 b4bd 2f79 a33c 5e76 0f3e
00000080: 3269 f4bd 12a9 1ebe 7c5c bebd 47eb 983e
00000090: ac48 a0bd 625d 30be c30b 9abd 9713 dcbd
000000a0: 7c15 8f3e 10fb 6ebd cc34 1cbc 50da e3bd
000000b0: 6fd1 19be bb09 d93e 2fe3 d33e 5ecc 763e
000000c0: 23b1 7c3d 4679 8dbe a865 0abe 75cf d2bd
000000d0: d110 013d c86b 4ebb a364 073e e906 df3c
000000e0: c61e debc 691f c7bd fd15 53bd a55e 153e
000000f0: 9c12 013e 4d7e 463e bcb2 8ebd 584a 06be
00000100: eacb 8c3e 0042 50be f197 233e 6960 c73e
00000110: 86c0 273d 7170 fe3c 9229 16be 0168 75be
00000120: 7d51 c4bd 8568 4c3d 7388 8e3e 6218 163e
00000130: 27b5 8abe 86d8 8f3e 74c7 4ebe 8891 0d3f
00000140: 9476 033f 454a 0bbd fbce 4b3e 272a 263e
00000150: 7e8b 0b3f 03ba d03e b192 16be 9e09 2bbe
00000160: 16e7 5e3d 52ca cf3e 44de 9e3e a957 30bc
00000170: be3e c1be a220 fc3e 71d5 ebbd 60dd 003e
00000180: 1511 093f baa0 e1ba 9ba3 e23e e4bc 253e
00000190: cb79 cabd d34e a4bd 4d5b 6e3d 5baf 483d
000001a0: d240 c8bd 92f6 98bd e022 da3e ae6b eebd
000001b0: 944b 8bbe b182 a1bd 7d9f 1bbd 3fe9 2b3f
000001c0: 72f2 d63d ac79 ac3d 1b9b 51be 9b2d b33e
000001d0: 9140 b83e 187f 023f aa8e afbd f134 b63d
000001e0: 429e 07be 8d3d 973e b79a 87be 75d4 8b3e
000001f0: 78a7 db3e 93cc 293e d32d 703e 8615 57bd

arith.constant7 f4 [256]
0.0 -0.005157383 -0.011925931 -0.017289523 -0.029518662 0.038802426 0.013810268 -0.020706208
0.013546029 0.02276409 0.027224343 -0.037209205 0.032611854 -0.0020781432 -0.004423741 0.039901108
0.0 0.0123052765 -0.017823033 -0.030454936 -0.010115307 0.0 0.011500287 -0.019650903
-0.0193869 0.006192776 -0.03959879 -0.06909208 -0.002756906 0.005009912 0.011838463 -0.0353777
0.0 0.019235931 -0.011437376 0.023517406 -0.018937988 0.04081987 0.1773258 -0.0066914917
0.02439587 0.18677385 -0.030308839 0.034415696 -0.021042056 -0.006039676 0.017420419 0.0022139833
0.04047035 -0.017374322 0.021433758 -0.08821884 -0.006041928 -0.021221574 0.027641984 -0.010638956
-0.021252586 -0.012703469 0.07344209 -0.027781546 -0.34404597 -0.01446848 -0.0155144585 -0.13751116
-0.03787554 -0.057665925 -0.011401115 0.01992342 -0.017436426 -0.04510313 0.06840157 -0.0074183596
-0.026312418 0.0 -0.034379385 -0.007179125 -0.029683791 -0.07678354 -0.3664813 0.0
-0.011889822 -0.015867805 -0.042925313 0.004480049 -0.027108474 -0.00787639 0.05998488 0.023105543
-0.018871957 -0.018010253 0.059941735 0.07120364 -0.005910927 0.030992292 0.0 0.03520448
-0.027652105 0.015052337 0.034893032 0.027086018 -0.015222955 0.0047879904 0.0020046476 0.0
-0.021269862 -0.020675803 0.0017261545 0.032382373 -0.022267848 -0.03446461 -0.025339717 0.07736265
-0.030733025 -0.041729424 0.025965845 0.022090217 -0.019379562 -0.0059104157 -0.047922008 -0.008635666
-0.023325128 0.030040074 0.009984075 -0.008815283 -0.0011061194 0.049254738 -0.048289996 -0.04905973
-0.03307842 -0.01475563 -0.0044109677 -0.0315284 -0.049280472 -0.031568035 -0.013246219 -0.0358735
-0.015820041 -0.010466392 -0.051120657 0.038288616 0.03907024 -0.021943903 -0.010274069 -0.11542546
-0.051632423 -0.044770367 -0.049835745 -0.0012489128 -0.015057434 0.023387458 -0.005415974 0.01482026
-0.015105571 -0.010062441 0.014234453 -0.018469362 0.0 -0.02977721 -0.015370067 0.008311467
-0.019739766 -0.03851816 0.014915823 0.026849732 -0.043113384 -0.0565298 0.0051241145 0.0080057075
-0.01884469 0.32071036 0.006621595 0.015833326 0.022496315 0.0543335 0.0 -0.049185768
0.061412282 -0.04322835 -0.03410993 -0.013083197 -0.002476187 -0.06392442 0.005590252 0.0
0.04676451 -0.0071109952 0.012843965 0.030066041 -0.0061181677 -0.023379283 -0.04722362 -0.030866768
0.0 -0.03317653 -0.012528465 0.02102149 0.041831315 0.021004088 0.028796924 6.771423e-06
-0.06433229 0.038585078 -0.013375542 -0.015349856 0.0026427286 0.025223648 0.0 0.029926341
-0.012189964 -0.010736652 -0.010067054 -0.00616942 -0.017314404 0.0035157048 -0.018810466 0.032170217
-0.36323816 -0.001222757 -0.05944423 0.055430587 -0.0059109563 0.0 -0.0067658015 0.0
0.010861626 0.03469569 0.022699114 -0.038649812 -0.040062785 0.0 -0.052838102 -0.009906636
0.0058845277 -0.042892575 0.0014069184 0.022493483 -0.0051613175 0.0034383708 -0.017402021 0.016312214
-0.07043995 -0.0049708514 0.03849892 0.017332688 -0.020519495 -0.015442324 -0.006753137 -0.010202222
-0.017370448 -0.017424615 0.022805832 0.03765928 0.015502935 0.02672578 -0.21388334 -0.008659786
00000000: 0000 0000 44ff a8bb fb64 43bc c2a2 8dbc
00000010: 1fd1 f1bc 4bef 1e3d 7644 623c 11a0 a9bc
00000020: 2af0 5d3c c27b ba3c 9605 df3c ae68 18bd
00000030: 0294 053d 7531 08bb 07f5 90bb 586f 233d
00000040: 0000 0000 129c 493c 9c01 92bc a17c f9bc
00000050: acba 25bc 0000 0000 b36b 3c3c eefa a0bc
00000060: 47d1 9ebc c5ec ca3b 5732 22bd 2680 8dbd
00000070: 35ad 34bb 302a a43b 1df6 413c 35e8 10bd
00000080: 0000 0000 ac94 9d3c d563 3bbc 93a7 c03c
00000090: d723 9bbc bc32 273d e594 353e 4d44 dbbb
000000a0: d9d9 c73c a541 3f3e 3e4a f8bc 79f7 0c3d
000000b0: 6460 acbc 79e8 c5bb 44b5 8e3c 7a18 113b
000000c0: 3dc4 253d 9854 8ebc d995 af3c 14ac b4bd
000000d0: 5efb c5bb ded8 adbc 7171 e23c 044f 2ebc
000000e0: e719 aebc 3622 50bc ce68 963d 2096 e3bc
000000f0: cb26 b0be 340d 6dbc 5b30 7ebc bacf 0cbe
00000100: 6223 1bbd 1b33 6cbd becb 3abc 7136 a33c
00000110: d6d6 8ebc 0fbe 38bd 1f16 8c3d b615 f3bb
00000120: 248d d7bc 0000 0000 66d1 0cbd de3e ebbb
00000130: 6c2b f3bc b040 9dbd 70a3 bbbe 0000 0000
00000140: 87cd 42bc 33fd 81bc 74d2 2fbd 60cd 923b
00000150: 9712 debc f90b 01bc b5b2 753d d647 bd3c
00000160: 5d99 9abc 3d8a 93bc 7785 753d 37d3 913d
00000170: 73b0 c1bb 8ce3 fd3c 0000 0000 9332 103d
00000180: ab86 e2bc 149e 763c ffeb 0e3d 7fe3 dd3c
00000190: b369 79bc 93e4 9c3b 6860 033b 0000 0000
000001a0: 223e aebc 4d60 a9bc 2240 e23a 61a3 043d
000001b0: 106b b6bc c32a 0dbd 3d95 cfbc 4f70 9e3d
000001c0: d3c3 fbbc 79ec 2abd 53b6 d43c 8bf6 b43c
000001d0: e3c1 9ebc 29ac c1bb de49 44bd 9c7c 0dbc
000001e0: 5714 bfbc 9a16 f63c 3f94 233c fa6d 10bc
000001f0: 35fb 90ba 56bf 493d bbcb 45bd dbf2 48bd
00000200: 3d7d 07bd 99c1 71bc e189 90bb ec23 01bd
00000210: 52da 49bd 7c4d 01bd ab06 59bc 17f0 12bd
00000220: 0899 81bc 3b7b 2bbc e563 51bd 86d4 1c3d
00000230: 1e08 203d b3c3 b3bc 9254 28bc 2f64 ecbd
00000240: 857c 53bd 2261 37bd 9120 4cbd 8fb2 a3ba
00000250: 75b3 76bc 0e97 bf3c 7c78 b1bb add0 723c
00000260: 5b7d 77bc f0dc 24bc a037 693c 0f4d 97bc
00000270: 0000 0000 56ef f3bc bcd2 7bbc d22c 083c
00000280: 4ab5 a1bc 38c5 1dbd 7f61 743c f8f3 db3c
00000290: a997 30bd cb8b 67bd 30e8 a73b 5f2a 033c
000002a0: 2e60 9abc 2634 a43e f7f9 d83b e4b4 813c
000002b0: 314a b83c ce8c 5e3d 0000 0000 0477 49bd
000002c0: 728b 7b3d 3610 31bd dbb6 0bbd e85a 56bc
000002d0: 8647 22bb ceea 82bd 6f2e b73b 0000 0000
000002e0: 258c 3f3d 5a03 e9bb 7e6f 523c 0f4d f63c
000002f0: e97a c8bb e985 bfbc 8e6d 41bd 4edc fcbc
00000300: 0000 0000 1de4 07bd 3144 4dbc 4335 ac3c
00000310: 5057 2b3d c410 ac3c 87e7 eb3c 1536 e336
00000320: a6c0 83bd 630b 1e3d 1725 5bbc f67d 7bbc
00000330: a131 2d3b d3a1 ce3c 0000 0000 1628 f53c
00000340: 6ab8 47bc c8e8 2fbc 49f0 24bc d928 cabb
00000350: f0d6 8dbc bd67 663b 6818 9abc ebc4 033d
00000360: 5afa b9be eb44 a0ba cb7b 73bd 2f0b 633d
00000370: b2b0 c1bb 0000 0000 a8b3 ddbb 0000 0000
00000380: f6f4 313c 111d 0e3d 7ef3 b93c 444f 1ebd
00000390: e018 24bd 0000 0000 c46c 58bd 714f 22bc
000003a0: ffd2 c03b 20b0 2fbd 5968 b83a 4144 b83c
000003b0: 4520 a9bb 4a56 613b af8e 8ebc 31a1 853c
000003c0: d242 90bd 86e2 a2bb 0bb1 1d3d 48fd 8d3c
000003d0: 8018 a8bc cd01 7dbc 6b49 ddbb 3827 27bc
000003e0: 784c 8ebc 11be 8ebc 4cd3 ba3c 9e40 1a3d
000003f0: 0600 7e3c 06f0 da3c 3c04 5bbe c6e1 0dbc

arith.constant8 f4 [64]
0.68773574 -0.04720126 -1.1783636 0.29118 -0.068577476 0.5606056 -0.16918436 -0.36243188
-0.13721628 -0.9911107 0.01937738 -0.1728092 -1.3925408 -0.2917359 0.22933368 0.38081315
-0.40152845 0.24437772 -0.30019292 -0.4742469 0.67384577 0.053918168 0.18312909 0.26027244
-0.36832434 0.33656564 0.29153168 0.30117866 0.121617936 -0.9484905 -0.34847063 0.52446884
0.26990083 -0.011499624 -0.83870834 -1.472041 -1.377461 -0.06367836 -0.3317411 -0.2968612
-0.11462101 -1.3575875 0.64207524 -0.6613408 -1.5561551 -0.32101035 0.22245646 -0.98599046
0.74528533 0.5539807 0.4813037 0.09924797 -0.29460317 0.43458307 -0.102608845 0.32485968
1.0280759 -0.78290844 0.6086873 -1.1183897 0.112952165 -1.0269536 -1.042506 -0.43679416
00000000: 730f 303f 1c56 41bd 9ed4 96bf 8c15 953e
00000010: 5972 8cbd d983 0f3f aa3e 2dbe ac90 b9be
00000020: 6d82 0cbe 6eb9 7dbf 50bd 9e3c e5f4 30be
00000030: c73e b2bf 685e 95be 73d6 6a3e f1f9 c23e
00000040: 2395 cdbe 273e 7a3e e3b2 99be 7dd0 f2be
00000050: 2881 2c3f 4cd9 5c3d 3186 3b3e 6e42 853e
00000060: 0295 bcbe 5552 ac3e a443 953e 1734 9a3e
00000070: d312 f93d 46d0 72bf be6a b2be 9743 063f
00000080: 7130 8a3e eb68 3cbc 97b5 56bf d76b bcbf
00000090: a450 b0bf cd69 82bd f8d9 a9be 31fe 97be
000000a0: 6cbe eabd 6dc5 adbf 0b5f 243f a14d 29bf
000000b0: 1730 c7bf 785b a4be a0cb 633e df69 7cbf
000000c0: 05cb 3e3f aed1 0d3f 706d f63e 8542 cb3d
000000d0: 3ad6 96be ac81 de3e 9624 d2bd 0254 a63e
000000e0: fe97 833f b06c 48bf eed2 1b3f 6527 8fbf
000000f0: 7753 e73d 3773 83bf d670 85bf 7ca3 dfbe

arith.constant9 f4 [18]
0.17086674 0.13741009 -0.08048379 0.05011176 -0.15234134 0.12873788 -0.22878744 0.18871415
-0.26497054 -0.063982666 0.12643105 -0.034100458 -0.19841011 -0.15987082 -0.040885605 0.17513898
0.0119546605 0.0427513
00000000: b1f7 2e3e 3bb5 0c3e afd4 a4bd fd41 4d3d
00000010: 5eff 1bbe ddd3 033e 4147 6abe 483e 413e
00000020: 38aa 87be 5809 83bd 2477 013e ecac 0bbd
00000030: 052c 4bbe 2db5 23be aa77 27bd a257 333e
00000040: 7bdd 433c fd1b 2f3d

tfl.pseudo_qconst i1 [18, 64] scale=0.005658728 zero_point=0
-0.11317456 -0.27161896 -0.19805548 0.30557132 -0.38479352 0.005658728 -0.27161896 -0.016976185
-0.25464275 0.011317456 -0.2037142 -0.19239676 -0.34518242 0.016976185 -0.31123003 -0.107515834
0.022634912 -0.2206904 -0.03395237 -0.31123003 0.18673803 -0.27727768 0.31123003 -0.26596022
-0.31688878 -0.1018571 0.48665062 -0.11883329 -0.33386496 -0.2603015 0.4470395 -0.12449202
0.06224601 -0.011317456 0.38479352 -0.11317456 0.3621586 -0.039611097 -0.18673803 -0.16976184
0.37347606 0.41874588 0.19239676 -0.2037142 -0.05658728 -0.09619838 -0.24898404 -0.1018571
-0.08488092 -0.31123003 -0.27161896 -0.16410312 -0.12449202 -0.38479352 -0.3621586 -0.33386496
-0.22634912 0.33386496 0.33952367 0.09053965 0.5885077 0.011317456 -0.15844439 0.2206904
-0.045269825 -0.20937294 -0.107515834 -0.11317456 -0.1414682 -0.13015075 -0.016976185 0.33952367
0.3225475 0.45835698 -0.33386496 -0.27161896 -0.1018571 -0.28859514 -0.4640157 -0.49230933
-0.005658728 -0.15844439 0.45835698 -0.2037142 -0.1810793 -0.2999126 0.29425386 -0.3225475
-0.49230933 -0.39611095 -0.18673803 -0.30557132 -0.24898404 -0.26596022 -0.02829364 0.4017697
-0.1414682 0.41874588 -0.039611097 -0.1018571 -0.22634912 -0.31123003 -0.41308716 -0.2206904
0.12449202 -0.17542057 0.25464275 -0.41308716 -0.1414682 0.43572205 -0.073563464 0.045269825
0.3678173 0.4017697 -0.19805548 -0.24332531 -0.24332531 -0.17542057 -0.2037142 -0.38479352
0.31123003 -0.15844439 -0.27727768 0.25464275 -0.08488092 0.15278566 0.03395237 -0.15844439
0.4244046 -0.33952367 0.16976184 -0.25464275 0.33952367 -0.29425386 0.24898404 -0.25464275
0.18673803 -0.05658728 -0.28859514 0.2037142 -0.06224601 -0.08488092 0.23766658 -0.039611097
0.23766658 -0.4809919 -0.16410312 -0.3678173 0.05658728 -0.38479352 0.05658728 -0.35649988
-0.45835698 -0.35649988 0.23766658 0.37347606 -0.16976184 0.2829364 -0.19239676 -0.30557132
0.13580948 -0.28859514 0.27161896 -0.31123003 -0.03395237 -0.39045224 -0.41874588 -0.34518242
0.15844439 -0.2603015 0.15278566 -0.2206904 0.022634912 0.28859514 0.005658728 0.2603015
-0.12449202 0.2037142 -0.1414682 -0.20937294 -0.29425386 -0.15278566 0.27727768 -0.4640157
0.16976184 0.045269825 0.039611097 0.2206904 -0.27727768 0.05092855 -0.20937294 -0.15844439
-0.2603015 -0.25464275 -0.39045224 -0.28859514 -0.16410312 0.11317456 -0.47533315 -0.4413808
-0.33952367 0.24332531 -0.011317456 -0.41874588 0.28859514 -0.3225475 -0.13580948 0.1414682
-0.1018571 0.32820624 0.23200785 0.25464275 0.2037142 -0.30557132 -0.32820624 0.2603015
-0.005658728 0.16410312 -0.11317456 -0.20937294 0.2999126 0.37347606 -0.2603015 -0.11317456
-0.43006334 0.17542057 0.35084113 0.31688878 -0.17542057 0.28859514 -0.24898404 -0.1810793
-0.1018571 0.27727768 -0.28859514 -0.33386496 0.16976184 -0.19239676 0.31123003 0.1810793
-0.17542057 -0.14712693 0.31123003 0.27161896 -0.4413808 -0.073563464 0.26596022 0.13580948
-0.17542057 -0.20937294 -0.4470395 -0.06790474 0.33952367 -0.24898404 -0.23766658 -0.08488092
00000000: ecd0 dd36 bc01 d0fd d302 dcde c303 c9ed
00000010: 04d9 fac9 21cf 37d1 c8ee 56eb c5d2 4fea
00000020: 0bfe 44ec 40f9 dfe2 424a 22dc f6ef d4ee
00000030: f1c9 d0e3 eabc c0c5 d83b 3c10 6802 e427
00000040: f8db edec e7e9 fd3c 3951 c5d0 eecd aea9
00000050: ffe4 51dc e0cb 34c7 a9ba dfca d4d1 fb47
00000060: e74a f9ee d8c9 b7d9 16e1 2db7 e74d f308
00000070: 4147 ddd5 d5e1 dcbc 37e4 cf2d f11b 06e4
00000080: 4bc4 1ed3 3ccc 2cd3 21f6 cd24 f5f1 2af9
00000090: 2aab e3bf 0abc 0ac1 afc1 2a42 e232 deca
000000a0: 18cd 30c9 fabb b6c3 1cd2 1bd9 0433 012e
000000b0: ea24 e7db cce5 31ae 1e08 0727 cf09 dbe4
000000c0: d2d3 bbcd e314 acb2 c42b feb6 33c7 e819
000000d0: ee3a 292d 24ca c62e ff1d ecdb 3542 d2ec
000000e0: b41f 3e38 e133 d4e0 ee31 cdc5 1ede 3720
000000f0: e1e6 3730 b2f3 2f18 e1db b1f4 3cd4 d6f1

tfl.pseudo_qconst1 i1 [64, 128] scale=0.014065225 zero_point=0
0.18284792 0.08439135 -0.042195674 0.12658702 0.1687827 -0.1125218 -0.18284792 -0.30943495
0.1687827 -0.26723927 0.32350016 -0.3375654 -0.35163063 -1.1814789 0.15471748 0.18284792
-0.46415243 0.09845658 -0.014065225 0.1687827 -0.8861092 -0.4078915 -0.1125218 0.02813045
0.15471748 -0.32350016 -0.014065225 -0.42195675 -0.0562609 -0.1687827 -0.0562609 -0.02813045
-0.042195674 -0.23910882 -0.08439135 0.07032612 0.14065224 0.0 0.042195674 0.014065225
0.1687827 -0.2953697 -0.4078915 0.37976107 -0.07032612 0.21097837 0.28130448 0.0562609
-0.56260896 0.0 0.1125218 -0.94237006 0.0 -0.26723927 0.1687827 -0.6751308
0.12658702 0.042195674 0.0 -0.8720439 -0.12658702 -0.0562609 -0.92830485 -0.0562609
0.02813045 0.0562609 0.14065224 0.26723927 -0.2250436 -0.4078915 -0.19691315 -0.2250436
0.08439135 0.09845658 -0.37976107 0.014065225 -0.689196 -0.2250436 -0.2250436 -0.042195674
0.07032612 -0.0562609 0.0562609 0.07032612 0.1125218 0.21097837 0.02813045 0.0
-0.02813045 -0.09845658 -0.1687827 0.0562609 0.02813045 0.042195674 -0.0562609 0.14065224
0.0 0.042195674 -0.09845658 -0.1687827 -0.02813045 -0.21097837 0.25317404 -0.0562609
-0.18284792 0.08439135 0.19691315 0.0562609 0.08439135 0.0562609 -0.42195675 -0.07032612
0.12658702 -0.09845658 0.0 0.0562609 -0.1687827 -0.19691315 -0.014065225 -0.56260896
-0.2953697 0.32350016 0.18284792 0.2250436 0.25317404 0.0 0.02813045 0.3375654
0.21097837 -0.19691315 -0.042195674 -0.23910882 -0.52041334 0.15471748 -0.49228287 0.19691315
0.0562609 -0.02813045 0.0 0.12658702 0.014065225 -0.73139167 0.09845658 0.014065225
-0.08439135 0.19691315 -0.14065224 -0.02813045 -0.14065224 -0.18284792 -0.12658702 -0.1687827
0.042195674 -0.4500872 -0.19691315 -0.08439135 0.09845658 0.09845658 0.07032612 -0.60480464
-0.12658702 0.0562609 0.1125218 -0.08439135 0.26723927 -0.1687827 -0.014065225 0.12658702
0.0 -0.26723927 0.1125218 0.07032612 -0.0562609 0.43602195 0.1125218 -0.2953697
-0.36569583 -0.19691315 0.1687827 -0.9705005 -0.95643526 0.014065225 0.014065225 -0.15471748
0.0 -0.52041334 0.0562609 0.09845658 -0.8439135 -0.3938263 -0.9142396 -0.15471748
-0.4078915 -0.02813045 -0.02813045 0.09845658 0.0562609 -0.1125218 -0.32350016 -0.042195674
-0.07032612 0.08439135 0.28130448 -0.7876526 -0.42195675 0.042195674 0.1687827 0.02813045
0.1687827 -0.0562609 0.14065224 0.21097837 0.15471748 0.042195674 -0.042195674 -0.014065225
0.0562609 -0.36569583 0.14065224 0.0 -0.1125218 0.0 0.0 0.37976107
0.09845658 -0.042195674 -0.8720439 0.0562609 0.1687827 0.07032612 0.09845658 0.014065225
0.1687827 -0.0562609 0.08439135 -0.0562609 0.09845658 -0.18284792 -0.46415243 0.1687827
0.0562609 0.07032612 -0.19691315 0.02813045 -0.2953697 0.014065225 -0.09845658 -0.689196
-0.26723927 0.0562609 0.0 0.042195674 0.2250436 0.08439135 -0.8861092 0.23910882
00000000: 0d06 fd09 0cf8 f3ea 0ced 17e8 e7ac 0b0d
00000010: df07 ff0c c1e3 f802 0be9 ffe2 fcf4 fcfe
00000020: fdef fa05 0a00 0301 0ceb e31b fb0f 1404
00000030: d800 08bd 00ed 0cd0 0903 00c2 f7fc befc
00000040: 0204 0a13 f0e3 f2f0 0607 e501 cff0 f0fd
00000050: 05fc 0405 080f 0200 fef9 f404 0203 fc0a
00000060: 0003 f9f4 fef1 12fc f306 0e04 0604 e2fb
00000070: 09f9 0004 f4f2 ffd8 eb17 0d10 1200 0218
00000080: 0ff2 fdef db0b dd0e 04fe 0009 01cc 0701
00000090: fa0e f6fe f6f3 f7f4 03e0 f2fa 0707 05d5
000000a0: f704 08fa 13f4 ff09 00ed 0805 fc1f 08eb
000000b0: e6f2 0cbb bc01 01f5 00db 0407 c4e4 bff5
000000c0: e3fe fe07 04f8 e9fd fb06 14c8 e203 0c02
000000d0: 0cfc 0a0f 0b03 fdff 04e6 0a00 f800 001b
000000e0: 07fd c204 0c05 0701 0cfc 06fc 07f3 df0c
000000f0: 0405 f202 eb01 f9cf ed04 0003 1006 c111

tfl.pseudo_qconst2 i1 [128, 256] scale=0.023797214 zero_point=0
-0.095188856 -0.11898607 0.095188856 0.11898607 -0.023797214 -0.047594428 -0.14278328 0.1665805
0.0 -0.023797214 -0.14278328 -0.11898607 -0.07139164 0.023797214 -0.26176935 0.023797214
0.023797214 0.023797214 -0.07139164 -0.30936378 0.047594428 0.0 0.047594428 0.1665805
-0.047594428 -0.333161 -0.07139164 0.023797214 0.23797214 0.11898607 0.14278328 -0.07139164
-0.095188856 -0.023797214 -0.11898607 -0.023797214 -0.023797214 -1.2850496 0.047594428 0.21417493
-0.07139164 -0.07139164 -0.023797214 -0.19037771 -0.023797214 0.23797214 0.14278328 -0.4997415
-0.42834985 -0.023797214 -0.095188856 0.1665805 0.023797214 0.1665805 0.047594428 0.0
0.0 0.07139164 -0.095188856 -0.07139164 -0.095188856 0.095188856 0.14278328 -0.4997415
-0.023797214 -0.11898607 -0.023797214 0.07139164 -0.07139164 -0.023797214 -0.19037771 -0.023797214
-0.047594428 -0.07139164 -0.11898607 0.07139164 -0.095188856 -0.047594428 -0.21417493 0.023797214
0.14278328 -0.19037771 0.19037771 0.0 -0.023797214 -0.11898607 0.047594428 -0.11898607
0.095188856 -0.023797214 0.07139164 -0.07139164 0.095188856 -0.07139164 0.14278328 -0.023797214
-0.11898607 -0.047594428 -0.047594428 0.11898607 -0.07139164 -0.023797214 -0.07139164 0.0
0.14278328 -0.047594428 -0.11898607 0.11898607 0.19037771 -0.11898607 -0.14278328 -0.14278328
0.19037771 -0.023797214 -0.333161 0.1665805 0.047594428 0.023797214 -0.023797214 -0.095188856
-0.1665805 0.023797214 0.023797214 0.30936378 -0.14278328 -0.047594428 0.11898607 -0.023797214
0.047594428 -0.023797214 -0.047594428 -0.023797214 0.19037771 -0.095188856 0.0 0.0
-0.11898607 0.047594428 -0.07139164 0.023797214 -0.047594428 0.14278328 0.07139164 -0.07139164
0.07139164 -0.07139164 -0.023797214 -0.1665805 0.047594428 0.21417493 0.023797214 0.1665805
0.07139164 -0.023797214 0.0 0.095188856 0.047594428 -0.095188856 0.0 -0.07139164
-0.07139164 0.0 -0.047594428 0.047594428 -0.095188856 0.30936378 0.0 -0.07139164
0.023797214 -0.095188856 0.11898607 0.0 0.0 -0.07139164 -0.11898607 0.047594428
-0.023797214 0.023797214 0.333161 -0.095188856 -0.023797214 -0.11898607 0.07139164 0.023797214
-0.047594428 0.07139164 0.14278328 -0.023797214 0.0 0.095188856 0.047594428 -0.26176935
0.047594428 -0.095188856 0.1665805 -0.023797214 -0.047594428 0.023797214 0.047594428 0.14278328
-0.11898607 0.14278328 -0.23797214 0.26176935 0.095188856 0.095188856 0.023797214 0.26176935
-0.11898607 -0.07139164 -0.07139164 0.26176935 0.023797214 0.07139164 -0.095188856 0.047594428
-0.07139164 0.047594428 -0.07139164 -0.07139164 -0.11898607 -0.26176935 -0.023797214 -0.023797214
-0.047594428 0.1665805 0.19037771 -0.023797214 -0.095188856 -0.21417493 0.1665805 0.07139164
0.047594428 0.11898607 0.21417493 -0.047594428 -0.1665805 -0.095188856 0.0 0.07139164
0.0 0.11898607 0.0 -0.11898607 -0.1665805 -0.19037771 -0.07139164 -0.1665805
0.023797214 0.1665805 -0.11898607 -0.4997415 -0.095188856 -0.28556657 -0.095188856 -0.11898607
00000000: fcfb 0405 fffe fa07 00ff fafb fd01 f501
00000010: 0101 fdf3 0200 0207 fef2 fd01 0a05 06fd
00000020: fcff fbff ffca 0209 fdfd fff8 ff0a 06eb
00000030: eeff fc07 0107 0200 0003 fcfd fc04 06eb
00000040: fffb ff03 fdff f8ff fefd fb03 fcfe f701
00000050: 06f8 0800 fffb 02fb 04ff 03fd 04fd 06ff
00000060: fbfe fe05 fdff fd00 06fe fb05 08fb fafa
00000070: 08ff f207 0201 fffc f901 010d fafe 05ff
00000080: 02ff feff 08fc 0000 fb02 fd01 fe06 03fd
00000090: 03fd fff9 0209 0107 03ff 0004 02fc 00fd
000000a0: fd00 fe02 fc0d 00fd 01fc 0500 00fd fb02
000000b0: ff01 0efc fffb 0301 fe03 06ff 0004 02f5
000000c0: 02fc 07ff fe01 0206 fb06 f60b 0404 010b
000000d0: fbfd fd0b 0103 fc02 fd02 fdfd fbf5 ffff
000000e0: fe07 08ff fcf7 0703 0205 09fe f9fc 0003
000000f0: 0005 00fb f9f8 fdf9 0107 fbeb fcf4 fcfb

sequential_1/dense_1/MatMul i1 [256, 63] scale=0.023656152 zero_point=0
-0.07096846 0.047312304 -0.07096846 -0.14193691 0.07096846 -0.023656152 0.0 -0.07096846
-0.023656152 -0.11828076 0.023656152 0.07096846 0.023656152 -0.09462461 0.09462461 0.023656152
-0.09462461 -0.07096846 0.023656152 -0.023656152 -0.07096846 0.09462461 -0.09462461 0.07096846
-0.09462461 0.09462461 -0.09462461 0.023656152 -0.047312304 0.14193691 0.07096846 -0.07096846
0.047312304 -0.11828076 0.09462461 0.0 0.0 -0.11828076 0.047312304 0.09462461
0.0 0.11828076 0.047312304 -0.023656152 -0.11828076 0.07096846 0.11828076 0.11828076
-0.11828076 -0.07096846 0.023656152 -0.09462461 -0.047312304 -0.047312304 0.047312304 0.023656152
-0.023656152 -0.09462461 -0.023656152 -0.11828076 -0.09462461 -0.047312304 0.09462461 0.11828076
0.09462461 -0.07096846 -0.023656152 0.0 0.09462461 -0.11828076 -0.07096846 -0.07096846
-0.07096846 -0.09462461 -0.047312304 0.047312304 -0.047312304 0.07096846 -0.07096846 -0.09462461
0.023656152 0.09462461 -0.11828076 0.0 -0.14193691 -0.09462461 0.047312304 -0.023656152
0.023656152 0.047312304 -0.07096846 0.09462461 0.0 -0.07096846 0.09462461 -0.14193691
0.11828076 0.07096846 -0.11828076 0.047312304 -0.09462461 0.11828076 -0.047312304 0.023656152
0.047312304 -0.07096846 -0.07096846 0.11828076 0.09462461 -0.07096846 -0.14193691 -0.023656152
0.047312304 0.023656152 0.07096846 0.0 0.07096846 -0.11828076 0.047312304 0.047312304
-0.023656152 -0.023656152 0.09462461 0.0 -0.047312304 -0.11828076 0.09462461 -0.09462461
0.07096846 -0.14193691 -0.14193691 0.09462461 -0.07096846 0.07096846 0.0 -0.07096846
-0.023656152 0.07096846 -0.07096846 0.07096846 -0.09462461 0.07096846 0.0 0.0
0.047312304 0.09462461 0.0 -0.07096846 -0.09462461 0.14193691 -0.023656152 -0.09462461
0.047312304 0.09462461 0.047312304 -0.07096846 -0.09462461 0.07096846 0.07096846 -0.047312304
-0.14193691 -0.023656152 -0.047312304 0.07096846 -0.07096846 -0.14193691 -0.023656152 0.07096846
-0.09462461 -0.07096846 0.09462461 0.11828076 -0.047312304 0.047312304 0.047312304 0.023656152
-0.11828076 -0.07096846 -0.023656152 -0.047312304 -0.07096846 0.047312304 -0.023656152 -0.047312304
0.0 -0.047312304 0.047312304 -0.11828076 0.07096846 -0.14193691 -0.11828076 -0.047312304
0.023656152 -0.047312304 0.28387383 -0.14193691 -0.07096846 0.047312304 -0.023656152 0.023656152
0.23656152 -0.14193691 -0.14193691 0.21290538 0.023656152 -0.047312304 0.023656152 -0.047312304
-0.047312304 -0.09462461 0.0 -0.023656152 -0.07096846 -0.21290538 0.18924922 -0.023656152
0.0 -0.18924922 -0.11828076 0.047312304 -0.14193691 -0.047312304 0.07096846 -0.047312304
0.047312304 -0.047312304 -0.047312304 0.18924922 -0.14193691 0.0 0.07096846 0.023656152
0.07096846 -0.023656152 -0.14193691 -0.16559306 0.023656152 -0.16559306 -0.26021767 -0.09462461
0.0 -0.14193691 0.07096846 -0.023656152 0.047312304 0.07096846 -0.07096846 0.0
-0.023656152 0.023656152 0.023656152 0.07096846 0.0 0.023656152 -0.09462461 0.047312304
00000000: fd02 fdfa 03ff 00fd fffb 0103 01fc 0401
00000010: fcfd 01ff fd04 fc03 fc04 fc01 fe06 03fd
00000020: 02fb 0400 00fb 0204 0005 02ff fb03 0505
00000030: fbfd 01fc fefe 0201 fffc fffb fcfe 0405
00000040: 04fd ff00 04fb fdfd fdfc fe02 fe03 fdfc
00000050: 0104 fb00 fafc 02ff 0102 fd04 00fd 04fa
00000060: 0503 fb02 fc05 fe01 02fd fd05 04fd faff
00000070: 0201 0300 03fb 0202 ffff 0400 fefb 04fc
00000080: 03fa fa04 fd03 00fd ff03 fd03 fc03 0000
00000090: 0204 00fd fc06 fffc 0204 02fd fc03 03fe
000000a0: faff fe03 fdfa ff03 fcfd 0405 fe02 0201
000000b0: fbfd fffe fd02 fffe 00fe 02fb 03fa fbfe
000000c0: 01fe 0cfa fd02 ff01 0afa fa09 01fe 01fe
000000d0: fefc 00ff fdf7 08ff 00f8 fb02 fafe 03fe
000000e0: 02fe fe08 fa00 0301 03ff faf9 01f9 f5fc
000000f0: 00fa 03ff 0203 fd00 ff01 0103 0001 fc02
