MLtrain/models/gesture_int8_vela.tflite (tflite, 66008 bytes, 10 tensors)

tfl.pseudo_qconst1 i1 [18, 64] scale=0.005658728 zero_point=0
-0.11317456 -0.27161896 -0.19805548 0.30557132 -0.38479352 0.005658728 -0.27161896 -0.016976185
-0.25464275 0.011317456 -0.2037142 -0.19239676 -0.34518242 0.016976185 -0.31123003 -0.107515834
0.022634912 -0.2206904 -0.03395237 -0.31123003 0.18673803 -0.27727768 0.31123003 -0.26596022
-0.31688878 -0.1018571 0.48665062 -0.11883329 -0.33386496 -0.2603015 0.4470395 -0.12449202
0.06224601 -0.011317456 0.38479352 -0.11317456 0.3621586 -0.039611097 -0.18673803 -0.16976184
0.37347606 0.41874588 0.19239676 -0.2037142 -0.05658728 -0.09619838 -0.24898404 -0.1018571
-0.08488092 -0.31123003 -0.27161896 -0.16410312 -0.12449202 -0.38479352 -0.3621586 -0.33386496
-0.22634912 0.33386496 0.33952367 0.09053965 0.5885077 0.011317456 -0.15844439 0.2206904
-0.045269825 -0.20937294 -0.107515834 -0.11317456 -0.1414682 -0.13015075 -0.016976185 0.33952367
0.3225475 0.45835698 -0.33386496 -0.27161896 -0.1018571 -0.28859514 -0.4640157 -0.49230933
-0.005658728 -0.15844439 0.45835698 -0.2037142 -0.1810793 -0.2999126 0.29425386 -0.3225475
-0.49230933 -0.39611095 -0.18673803 -0.30557132 -0.24898404 -0.26596022 -0.02829364 0.4017697
-0.1414682 0.41874588 -0.039611097 -0.1018571 -0.22634912 -0.31123003 -0.41308716 -0.2206904
0.12449202 -0.17542057 0.25464275 -0.41308716 -0.1414682 0.43572205 -0.073563464 0.045269825
0.3678173 0.4017697 -0.19805548 -0.24332531 -0.24332531 -0.17542057 -0.2037142 -0.38479352
0.31123003 -0.15844439 -0.27727768 0.25464275 -0.08488092 0.15278566 0.03395237 -0.15844439
0.4244046 -0.33952367 0.16976184 -0.25464275 0.33952367 -0.29425386 0.24898404 -0.25464275
0.18673803 -0.05658728 -0.28859514 0.2037142 -0.06224601 -0.08488092 0.23766658 -0.039611097
0.23766658 -0.4809919 -0.16410312 -0.3678173 0.05658728 -0.38479352 0.05658728 -0.35649988
-0.45835698 -0.35649988 0.23766658 0.37347606 -0.16976184 0.2829364 -0.19239676 -0.30557132
0.13580948 -0.28859514 0.27161896 -0.31123003 -0.03395237 -0.39045224 -0.41874588 -0.34518242
0.15844439 -0.2603015 0.15278566 -0.2206904 0.022634912 0.28859514 0.005658728 0.2603015
-0.12449202 0.2037142 -0.1414682 -0.20937294 -0.29425386 -0.15278566 0.27727768 -0.4640157
0.16976184 0.045269825 0.039611097 0.2206904 -0.27727768 0.05092855 -0.20937294 -0.15844439
-0.2603015 -0.25464275 -0.39045224 -0.28859514 -0.16410312 0.11317456 -0.47533315 -0.4413808
-0.33952367 0.24332531 -0.011317456 -0.41874588 0.28859514 -0.3225475 -0.13580948 0.1414682
-0.1018571 0.32820624 0.23200785 0.25464275 0.2037142 -0.30557132 -0.32820624 0.2603015
-0.005658728 0.16410312 -0.11317456 -0.20937294 0.2999126 0.37347606 -0.2603015 -0.11317456
-0.43006334 0.17542057 0.35084113 0.31688878 -0.17542057 0.28859514 -0.24898404 -0.1810793
-0.1018571 0.27727768 -0.28859514 -0.33386496 0.16976184 -0.19239676 0.31123003 0.1810793
-0.17542057 -0.14712693 0.31123003 0.27161896 -0.4413808 -0.073563464 0.26596022 0.13580948
-0.17542057 -0.20937294 -0.4470395 -0.06790474 0.33952367 -0.24898404 -0.23766658 -0.08488092
00000000: ecd0 dd36 bc01 d0fd d302 dcde c303 c9ed
00000010: 04d9 fac9 21cf 37d1 c8ee 56eb c5d2 4fea
00000020: 0bfe 44ec 40f9 dfe2 424a 22dc f6ef d4ee
00000030: f1c9 d0e3 eabc c0c5 d83b 3c10 6802 e427
00000040: f8db edec e7e9 fd3c 3951 c5d0 eecd aea9
00000050: ffe4 51dc e0cb 34c7 a9ba dfca d4d1 fb47
00000060: e74a f9ee d8c9 b7d9 16e1 2db7 e74d f308
00000070: 4147 ddd5 d5e1 dcbc 37e4 cf2d f11b 06e4
00000080: 4bc4 1ed3 3ccc 2cd3 21f6 cd24 f5f1 2af9
00000090: 2aab e3bf 0abc 0ac1 afc1 2a42 e232 deca
000000a0: 18cd 30c9 fabb b6c3 1cd2 1bd9 0433 012e
000000b0: ea24 e7db cce5 31ae 1e08 0727 cf09 dbe4
000000c0: d2d3 bbcd e314 acb2 c42b feb6 33c7 e819
000000d0: ee3a 292d 24ca c62e ff1d ecdb 3542 d2ec
000000e0: b41f 3e38 e133 d4e0 ee31 cdc5 1ede 3720
000000f0: e1e6 3730 b2f3 2f18 e1db b1f4 3cd4 d6f1

tfl.pseudo_qconst2 i1 [1, 64] scale=0.0013096791 zero_point=127
-0.32349074 -0.19776155 -0.22788417 -0.2134777 -0.18990347 -0.19121315 -0.15585181 -0.12965824
-0.18859379 -0.18073572 -0.19776155 -0.1637099 -0.12703888 -0.18859379 -0.16501957 -0.23967128
-0.16109054 -0.2003809 -0.22395512 -0.15585181 -0.20430994 -0.21609706 -0.20169058 -0.2501487
-0.13620663 -0.22919385 -0.19252282 -0.25407776 -0.20430994 -0.1257292 -0.12441952 -0.18597443
-0.27896166 -0.3064649 -0.12965824 -0.1689486 -0.16632925 -0.23443256 -0.13489695 -0.15847117
-0.18466476 -0.14537439 -0.21740673 -0.13620663 -0.19383252 -0.17287764 -0.2383616 -0.12965824
-0.3012262 -0.21085835 -0.2134777 -0.16632925 -0.12834856 -0.25669712 -0.12441952 -0.17287764
-0.33396816 -0.16240022 -0.2632455 -0.18335508 -0.20954865 -0.19121315 -0.21216802 -0.1506131
00000000: 88e8 d1dc eeed 081c eff5 e802 1eef 01c8
00000010: 04e6 d408 e3da e5c0 17d0 ecbd e31f 20f1
00000020: aa95 1cfe 00cc 1806 f210 d917 ebfb c91c
00000030: 99de dc00 1dbb 20fb 8003 b6f3 dfed dd0c

tfl.pseudo_qconst3 i1 [1, 64] scale=0.003868326 zero_point=-128
0.42164755 0.48740909 0.98642313 0.3713593 0.5144874 0.49514574 0.39456925 0.5144874
0.42551586 0.6730887 0.43712085 0.5609073 0.711772 0.545434 0.45259416 0.3984376
0.43712085 0.49901405 0.49127743 0.52609235 0.4293842 0.55703896 0.47193578 0.47967243
0.45646247 0.4332525 0.46419913 0.44872582 0.38296428 0.7079037 0.5144874 0.50288236
0.47967243 0.45259416 0.59959054 0.8162168 0.6769571 0.44872582 0.51061904 0.4448575
0.533829 0.5879856 0.37522763 0.51835567 0.6924304 0.5376973 0.4448575 0.45259416
0.47580412 0.47967243 0.47967243 0.49127743 0.49127743 0.44872582 0.5493023 0.49127743
0.41004255 0.5609073 0.4139109 0.6382738 0.46419913 0.5918539 0.6962987 0.4603308
00000000: edfe 7fe0 0500 e605 ee2e f111 380d f5e7
00000010: f101 ff08 ef10 fafc f6f0 f8f4 e337 0502
00000020: fcf5 1b53 2ff4 04f3 0a18 e106 330b f3f5
00000030: fbfc fcff fff4 0eff ea11 eb25 f819 34f7

tfl.pseudo_qconst5 i1 [64, 128] scale=0.014065225 zero_point=0
0.18284792 0.08439135 -0.042195674 0.12658702 0.1687827 -0.1125218 -0.18284792 -0.30943495
0.1687827 -0.26723927 0.32350016 -0.3375654 -0.35163063 -1.1814789 0.15471748 0.18284792
-0.46415243 0.09845658 -0.014065225 0.1687827 -0.8861092 -0.4078915 -0.1125218 0.02813045
0.15471748 -0.32350016 -0.014065225 -0.42195675 -0.0562609 -0.1687827 -0.0562609 -0.02813045
-0.042195674 -0.23910882 -0.08439135 0.07032612 0.14065224 0.0 0.042195674 0.014065225
0.1687827 -0.2953697 -0.4078915 0.37976107 -0.07032612 0.21097837 0.28130448 0.0562609
-0.56260896 0.0 0.1125218 -0.94237006 0.0 -0.26723927 0.1687827 -0.6751308
0.12658702 0.042195674 0.0 -0.8720439 -0.12658702 -0.0562609 -0.92830485 -0.0562609
0.02813045 0.0562609 0.14065224 0.26723927 -0.2250436 -0.4078915 -0.19691315 -0.2250436
0.08439135 0.09845658 -0.37976107 0.014065225 -0.689196 -0.2250436 -0.2250436 -0.042195674
0.07032612 -0.0562609 0.0562609 0.07032612 0.1125218 0.21097837 0.02813045 0.0
-0.02813045 -0.09845658 -0.1687827 0.0562609 0.02813045 0.042195674 -0.0562609 0.14065224
0.0 0.042195674 -0.09845658 -0.1687827 -0.02813045 -0.21097837 0.25317404 -0.0562609
-0.18284792 0.08439135 0.19691315 0.0562609 0.08439135 0.0562609 -0.42195675 -0.07032612
0.12658702 -0.09845658 0.0 0.0562609 -0.1687827 -0.19691315 -0.014065225 -0.56260896
-0.2953697 0.32350016 0.18284792 0.2250436 0.25317404 0.0 0.02813045 0.3375654
0.21097837 -0.19691315 -0.042195674 -0.23910882 -0.52041334 0.15471748 -0.49228287 0.19691315
0.0562609 -0.02813045 0.0 0.12658702 0.014065225 -0.73139167 0.09845658 0.014065225
-0.08439135 0.19691315 -0.14065224 -0.02813045 -0.14065224 -0.18284792 -0.12658702 -0.1687827
0.042195674 -0.4500872 -0.19691315 -0.08439135 0.09845658 0.09845658 0.07032612 -0.60480464
-0.12658702 0.0562609 0.1125218 -0.08439135 0.26723927 -0.1687827 -0.014065225 0.12658702
0.0 -0.26723927 0.1125218 0.07032612 -0.0562609 0.43602195 0.1125218 -0.2953697
-0.36569583 -0.19691315 0.1687827 -0.9705005 -0.95643526 0.014065225 0.014065225 -0.15471748
0.0 -0.52041334 0.0562609 0.09845658 -0.8439135 -0.3938263 -0.9142396 -0.15471748
-0.4078915 -0.02813045 -0.02813045 0.09845658 0.0562609 -0.1125218 -0.32350016 -0.042195674
-0.07032612 0.08439135 0.28130448 -0.7876526 -0.42195675 0.042195674 0.1687827 0.02813045
0.1687827 -0.0562609 0.14065224 0.21097837 0.15471748 0.042195674 -0.042195674 -0.014065225
0.0562609 -0.36569583 0.14065224 0.0 -0.1125218 0.0 0.0 0.37976107
0.09845658 -0.042195674 -0.8720439 0.0562609 0.1687827 0.07032612 0.09845658 0.014065225
0.1687827 -0.0562609 0.08439135 -0.0562609 0.09845658 -0.18284792 -0.46415243 0.1687827
0.0562609 0.07032612 -0.19691315 0.02813045 -0.2953697 0.014065225 -0.09845658 -0.689196
-0.26723927 0.0562609 0.0 0.042195674 0.2250436 0.08439135 -0.8861092 0.23910882
00000000: 0d06 fd09 0cf8 f3ea 0ced 17e8 e7ac 0b0d
00000010: df07 ff0c c1e3 f802 0be9 ffe2 fcf4 fcfe
00000020: fdef fa05 0a00 0301 0ceb e31b fb0f 1404
00000030: d800 08bd 00ed 0cd0 0903 00c2 f7fc befc
00000040: 0204 0a13 f0e3 f2f0 0607 e501 cff0 f0fd
00000050: 05fc 0405 080f 0200 fef9 f404 0203 fc0a
00000060: 0003 f9f4 fef1 12fc f306 0e04 0604 e2fb
00000070: 09f9 0004 f4f2 ffd8 eb17 0d10 1200 0218
00000080: 0ff2 fdef db0b dd0e 04fe 0009 01cc 0701
00000090: fa0e f6fe f6f3 f7f4 03e0 f2fa 0707 05d5
000000a0: f704 08fa 13f4 ff09 00ed 0805 fc1f 08eb
000000b0: e6f2 0cbb bc01 01f5 00db 0407 c4e4 bff5
000000c0: e3fe fe07 04f8 e9fd fb06 14c8 e203 0c02
000000d0: 0cfc 0a0f 0b03 fdff 04e6 0a00 f800 001b
000000e0: 07fd c204 0c05 0701 0cfc 06fc 07f3 df0c
000000f0: 0405 f202 eb01 f9cf ed04 0003 1006 c111

tfl.pseudo_qconst6 i1 [1, 128] scale=0.0034938462 zero_point=125
-0.35287845 -0.3493846 -0.24806307 -0.31444615 -0.38781694 -0.37034768 -0.57997847 -0.27252
-0.63238615 -0.11529692 -0.44022462 -0.2795077 -0.3493846 -0.13975385 -0.20613693 -0.39829847
-0.18168 -0.2864954 -0.18168 -0.30047077 -0.3109523 -0.2655323 -0.083852306 -0.5066077
-0.18517384 -0.28300154 -0.35287845 -0.45070615 -0.2271 -0.3563723 -0.19914924 -0.4611877
-0.11879077 -0.19914924 -0.3773354 -0.5764846 -0.36336 -0.09433385 -0.3039646 -0.20963077
-0.42974308 -0.24107538 -0.35986614 -0.40179232 -0.2271 -0.6498554 -0.6149169 -0.5275708
-0.15023538 -0.2271 -0.104815386 -0.24456923 -0.22011231 -0.36685383 -0.23059385 -0.27601385
-0.23408769 -0.16421077 -0.11529692 -0.24107538 -0.3039646 -0.24806307 -0.09433385 -0.13626
-0.56250924 -0.104815386 -0.19914924 -0.70925075 -0.47166923 -0.25505078 -0.33540922 -0.12927231
-0.20613693 -0.21312462 -0.48913845 -0.50311387 -0.05590154 -0.74069536 -0.33191538 -0.8839431
-0.6149169 -0.43673077 -0.7197323 -0.5205831 -0.8524985 -0.5310646 -0.26902616 -0.2864954
-0.36685383 -0.55552155 -0.5520277 -0.11180308 0.0069876923 -0.62539846 -0.35986614 -0.4472123
-0.3249277 -0.30047077 -0.3109523 -0.12927231 -0.23408769 -0.34589076 -0.37034768 -0.2864954
-0.4856446 -0.20963077 -0.7756339 -0.3493846 -0.3249277 -0.1746923 -0.2795077 -0.59046
-0.19914924 -0.24806307 -0.29348308 -0.41926154 -0.6917815 -0.54853386 -0.39480463 -0.16071692
-0.15722308 -0.56250924 -0.22011231 -0.33890307 -0.6428677 -0.49962 -0.22360615 -0.4157677
00000000: 1819 3623 0e13 d72f c85c ff2d 1955 420b
00000010: 492b 4927 2431 65ec 482c 18fc 3c17 44f9
00000020: 5b44 11d8 1562 2641 0238 160a 3cc3 cde6
00000030: 523c 5f37 3e14 3b2e 3a4e 5c38 2636 6256
00000040: dc5f 44b2 f634 1d58 4240 f1ed 6da9 1e80
00000050: cd00 afe8 89e5 302b 14de df5d 7fca 16fd
00000060: 2027 2458 3a1a 132b f241 9f19 204b 2dd4
00000070: 4436 2905 b7e0 0c4f 50dc 3e1c c5ee 3d06

tfl.pseudo_qconst7 i1 [1, 128] scale=0.021031816 zero_point=-128
2.6079452 0.9253999 3.5543768 1.8087361 1.5563544 1.8928634 1.8087361 2.860327
2.4396906 1.1988134 2.9444542 3.1758041 3.638504 1.703577 1.8507998 2.7131042
1.0095272 2.2083406 1.7877043 1.4301635 3.1547723 1.7456406 1.4511952 3.2809632
2.166277 2.0190544 2.5448496 2.040086 1.5563544 2.2293725 1.8718315 2.0821497
1.703577 2.965486 3.2809632 2.1242135 3.1337404 2.7761996 2.166277 1.3880998
2.2083406 2.3345315 2.0190544 3.5543768 2.0190544 2.5027862 2.2504044 1.8718315
1.2198453 2.7551677 2.6920724 1.598418 1.6825452 1.934927 1.9138952 2.4186587
1.4511952 1.829768 2.0190544 2.061118 1.703577 1.6615134 2.7551677 3.070645
3.3650904 2.8392951 2.166277 2.271436 2.860327 1.7877043 3.869854 2.2504044
2.2504044 1.1146863 0.86230445 1.703577 3.8277905 2.4396906 4.101204 1.5353225
1.9138952 2.6920724 2.5448496 1.1988134 2.6500087 2.5027862 1.5142907 2.5027862
2.3765953 2.3765953 2.6079452 1.7877043 5.363113 2.3134997 4.206363 3.3861222
1.1146863 1.5142907 1.0726225 1.7246089 2.986518 2.2083406 2.5869133 1.1567498
3.3650904 2.3765953 2.5448496 2.1031816 3.091677 2.5027862 4.227395 1.0936544
2.4186587 1.3460362 2.061118 1.5142907 1.6194499 1.9138952 2.965486 1.5142907
2.1031816 1.6615134 2.7972314 1.1567498 2.5238178 2.061118 1.598418 2.628977
00000000: fcac 29d6 cada d608 f4b9 0c17 2dd1 d801
00000010: b0e9 d5c4 16d3 c51c e7e0 f9e1 caea d9e3
00000020: d10d 1ce5 1504 e7c2 e9ef e029 e0f7 ebd9
00000030: ba03 00cc d0dc dbf3 c5d7 e0e2 d1cf 0312
00000040: 2007 e7ec 08d5 38eb ebb5 a9d1 36f4 43c9
00000050: db00 f9b9 fef7 c8f7 f1f1 fcd5 7fee 4821
00000060: b5c8 b3d2 0ee9 fbb7 20f1 f9e4 13f7 49b4
00000070: f3c0 e2c8 cddb 0dc8 e4cf 05b7 f8e2 ccfd

tfl.pseudo_qconst9 i1 [128, 256] scale=0.023797214 zero_point=0
-0.095188856 -0.11898607 0.095188856 0.11898607 -0.023797214 -0.047594428 -0.14278328 0.1665805
0.0 -0.023797214 -0.14278328 -0.11898607 -0.07139164 0.023797214 -0.26176935 0.023797214
0.023797214 0.023797214 -0.07139164 -0.30936378 0.047594428 0.0 0.047594428 0.1665805
-0.047594428 -0.333161 -0.07139164 0.023797214 0.23797214 0.11898607 0.14278328 -0.07139164
-0.095188856 -0.023797214 -0.11898607 -0.023797214 -0.023797214 -1.2850496 0.047594428 0.21417493
-0.07139164 -0.07139164 -0.023797214 -0.19037771 -0.023797214 0.23797214 0.14278328 -0.4997415
-0.42834985 -0.023797214 -0.095188856 0.1665805 0.023797214 0.1665805 0.047594428 0.0
0.0 0.07139164 -0.095188856 -0.07139164 -0.095188856 0.095188856 0.14278328 -0.4997415
-0.023797214 -0.11898607 -0.023797214 0.07139164 -0.07139164 -0.023797214 -0.19037771 -0.023797214
-0.047594428 -0.07139164 -0.11898607 0.07139164 -0.095188856 -0.047594428 -0.21417493 0.023797214
0.14278328 -0.19037771 0.19037771 0.0 -0.023797214 -0.11898607 0.047594428 -0.11898607
0.095188856 -0.023797214 0.07139164 -0.07139164 0.095188856 -0.07139164 0.14278328 -0.023797214
-0.11898607 -0.047594428 -0.047594428 0.11898607 -0.07139164 -0.023797214 -0.07139164 0.0
0.14278328 -0.047594428 -0.11898607 0.11898607 0.19037771 -0.11898607 -0.14278328 -0.14278328
0.19037771 -0.023797214 -0.333161 0.1665805 0.047594428 0.023797214 -0.023797214 -0.095188856
-0.1665805 0.023797214 0.023797214 0.30936378 -0.14278328 -0.047594428 0.11898607 -0.023797214
0.047594428 -0.023797214 -0.047594428 -0.023797214 0.19037771 -0.095188856 0.0 0.0
-0.11898607 0.047594428 -0.07139164 0.023797214 -0.047594428 0.14278328 0.07139164 -0.07139164
0.07139164 -0.07139164 -0.023797214 -0.1665805 0.047594428 0.21417493 0.023797214 0.1665805
0.07139164 -0.023797214 0.0 0.095188856 0.047594428 -0.095188856 0.0 -0.07139164
-0.07139164 0.0 -0.047594428 0.047594428 -0.095188856 0.30936378 0.0 -0.07139164
0.023797214 -0.095188856 0.11898607 0.0 0.0 -0.07139164 -0.11898607 0.047594428
-0.023797214 0.023797214 0.333161 -0.095188856 -0.023797214 -0.11898607 0.07139164 0.023797214
-0.047594428 0.07139164 0.14278328 -0.023797214 0.0 0.095188856 0.047594428 -0.26176935
0.047594428 -0.095188856 0.1665805 -0.023797214 -0.047594428 0.023797214 0.047594428 0.14278328
-0.11898607 0.14278328 -0.23797214 0.26176935 0.095188856 0.095188856 0.023797214 0.26176935
-0.11898607 -0.07139164 -0.07139164 0.26176935 0.023797214 0.07139164 -0.095188856 0.047594428
-0.07139164 0.047594428 -0.07139164 -0.07139164 -0.11898607 -0.26176935 -0.023797214 -0.023797214
-0.047594428 0.1665805 0.19037771 -0.023797214 -0.095188856 -0.21417493 0.1665805 0.07139164
0.047594428 0.11898607 0.21417493 -0.047594428 -0.1665805 -0.095188856 0.0 0.07139164
0.0 0.11898607 0.0 -0.11898607 -0.1665805 -0.19037771 -0.07139164 -0.1665805
0.023797214 0.1665805 -0.11898607 -0.4997415 -0.095188856 -0.28556657 -0.095188856 -0.11898607
00000000: fcfb 0405 fffe fa07 00ff fafb fd01 f501
00000010: 0101 fdf3 0200 0207 fef2 fd01 0a05 06fd
00000020: fcff fbff ffca 0209 fdfd fff8 ff0a 06eb
00000030: eeff fc07 0107 0200 0003 fcfd fc04 06eb
00000040: fffb ff03 fdff f8ff fefd fb03 fcfe f701
00000050: 06f8 0800 fffb 02fb 04ff 03fd 04fd 06ff
00000060: fbfe fe05 fdff fd00 06fe fb05 08fb fafa
00000070: 08ff f207 0201 fffc f901 010d fafe 05ff
00000080: 02ff feff 08fc 0000 fb02 fd01 fe06 03fd
00000090: 03fd fff9 0209 0107 03ff 0004 02fc 00fd
000000a0: fd00 fe02 fc0d 00fd 01fc 0500 00fd fb02
000000b0: ff01 0efc fffb 0301 fe03 06ff 0004 02f5
000000c0: 02fc 07ff fe01 0206 fb06 f60b 0404 010b
000000d0: fbfd fd0b 0103 fc02 fd02 fdfd fbf5 ffff
000000e0: fe07 08ff fcf7 0703 0205 09fe f9fc 0003
000000f0: 0005 00fb f9f8 fdf9 0107 fbeb fcf4 fcfb

tfl.pseudo_qconst10 i1 [1, 256] scale=0.0025017553 zero_point=116
-0.0050035105 0.0025017553 -0.0050035105 0.0025017553 -0.0025017553 -0.4753335 -0.007505266 -0.0050035105
-0.0050035105 0.007505266 0.012508776 -0.007505266 -0.0025017553 -0.015010532 -0.012508776 -0.27519307
-0.0025017553 -0.0025017553 0.0 -0.035024572 0.0025017553 0.0025017553 0.010007021 0.010007021
0.0025017553 -0.0050035105 -0.010007021 0.0025017553 0.0050035105 0.0025017553 0.0 -0.0025017553
0.0 -0.015010532 -0.0025017553 0.007505266 -0.007505266 -0.17262112 -0.26018256 -0.007505266
0.0050035105 -0.4303019 0.0050035105 0.0025017553 -0.007505266 0.0050035105 -0.24517201 -0.1851299
-0.2576808 0.0050035105 -0.0025017553 -0.0025017553 0.0025017553 0.012508776 0.0 0.0025017553
-0.015010532 -0.0025017553 -0.2902036 -0.0025017553 -0.6104283 0.0025017553 -0.0025017553 -0.22015446
-0.0050035105 -0.0050035105 -0.010007021 -0.0025017553 -0.0050035105 0.0050035105 -0.30521414 0.0025017553
-0.007505266 -0.015010532 -0.007505266 -0.007505266 0.010007021 -0.012508776 -0.09756845 0.012508776
0.0025017553 -0.012508776 -0.0025017553 -0.0025017553 0.0 0.0 -0.1951369 -0.010007021
-0.0025017553 -0.0050035105 0.0025017553 -0.38276854 0.0 -0.22515798 0.0025017553 -0.23766676
-0.0050035105 -0.0025017553 -0.0025017553 0.010007021 -0.0025017553 0.010007021 0.0 -0.0050035105
0.012508776 -0.0025017553 0.0 -0.3702598 0.0025017553 -0.012508776 0.0 -0.15761058
-0.0050035105 0.0050035105 -0.25517905 0.022515798 0.0025017553 0.025017552 -0.007505266 -0.007505266
0.0025017553 0.0 -0.015010532 0.007505266 0.0050035105 -0.34274048 0.0025017553 -0.0050035105
0.0 0.0025017553 -0.0050035105 0.007505266 0.0025017553 -0.0025017553 0.0050035105 0.0050035105
0.0050035105 0.0050035105 -0.0050035105 -0.22015446 -0.20514393 0.010007021 0.012508776 0.0
-0.0050035105 0.0025017553 0.012508776 0.0025017553 -0.0025017553 -0.36525628 -0.0050035105 0.0
-0.0025017553 -0.007505266 0.0050035105 0.0025017553 -0.012508776 0.0025017553 0.0 -0.010007021
0.0 0.027519308 0.0 -0.0050035105 0.0025017553 0.0 0.0 0.0
-0.007505266 -0.020014042 0.007505266 -0.0050035105 0.0025017553 -0.0050035105 0.0025017553 0.007505266
0.0050035105 -0.0050035105 0.0025017553 0.0050035105 -0.007505266 -0.0025017553 0.0025017553 0.007505266
-0.007505266 -0.007505266 -0.007505266 -0.007505266 0.0025017553 0.010007021 -0.007505266 0.0025017553
-0.015010532 0.0025017553 -0.007505266 -0.0025017553 0.0 -0.0025017553 -0.2726913 0.022515798
0.0025017553 0.0025017553 0.007505266 -0.0025017553 -0.017512286 -0.19263515 -0.0025017553 -0.39527732
0.007505266 0.0 0.0050035105 0.017512286 -0.0025017553 0.0 -0.0025017553 0.0050035105
-0.3352352 -0.007505266 0.007505266 0.0 -0.0025017553 0.012508776 0.007505266 0.010007021
0.015010532 -0.0025017553 -0.23266324 0.0025017553 0.0 -0.0050035105 0.0025017553 0.007505266
0.010007021 0.010007021 -0.0050035105 -0.0025017553 -0.0025017553 -0.015010532 0.007505266 -0.012508776
0.0025017553 0.0 0.010007021 -0.012508776 -0.0025017553 -0.007505266 0.0025017553 0.0
-0.017512286 -0.0050035105 -0.010007021 -0.34524223 0.0025017553 -0.30521414 -0.09006319 0.0050035105
00000000: 7275 7275 73b6 7172 7277 7971 736e 6f06
00000010: 7373 7466 7575 7878 7572 7075 7675 7473
00000020: 746e 7377 712f 0c71 76c8 7675 7176 122a
00000030: 0d76 7373 7579 7475 6e73 0073 8075 731c
00000040: 7272 7073 7276 fa75 716e 7171 786f 4d79
00000050: 756f 7373 7474 2670 7372 75db 741a 7515
00000060: 7273 7378 7378 7472 7973 74e0 756f 7435
00000070: 7276 0e7d 757e 7171 7574 6e77 76eb 7572
00000080: 7475 7277 7573 7676 7676 721c 2278 7974
00000090: 7275 7975 73e2 7274 7371 7675 6f75 7470
000000a0: 747f 7472 7574 7474 716c 7772 7572 7577
000000b0: 7672 7576 7173 7577 7171 7171 7578 7175
000000c0: 6e75 7173 7473 077d 7575 7773 6d27 73d6
000000d0: 7774 767b 7374 7376 ee71 7774 7379 7778
000000e0: 7a73 1775 7472 7577 7878 7273 736e 776f
000000f0: 7574 786f 7371 7574 6d72 70ea 75fa 5076

tfl.pseudo_qconst11 i1 [1, 256] scale=0.15491909 zero_point=-128
31.603495 31.448574 31.293655 32.22317 30.364141 11.154175 35.78631 31.758413
24.941973 31.913332 28.505112 30.364141 32.687927 32.068253 31.138737 8.365631
31.603495 32.068253 27.885435 6.971359 31.293655 31.603495 30.209223 31.138737
32.997765 33.617443 28.66003 30.983818 34.546955 32.37809 29.124788 29.589546
31.603495 30.8289 33.462524 37.80026 29.589546 7.436116 4.957411 31.448574
33.617443 2.168867 31.758413 30.983818 29.279707 31.448574 16.731262 3.563139
5.732006 31.603495 35.321552 28.505112 31.448574 31.448574 32.37809 32.22317
21.99851 30.364141 6.8164396 28.81495 1.2393527 31.293655 30.8289 3.718058
31.913332 31.448574 26.955921 34.237118 31.293655 32.22317 6.661521 31.448574
30.673979 31.603495 29.124788 31.293655 27.730516 29.124788 4.1828156 31.603495
32.53301 31.758413 28.81495 33.92728 31.138737 31.138737 4.4926534 33.462524
30.983818 30.983818 32.068253 4.0278964 31.448574 5.4221683 31.603495 6.0418444
30.673979 27.885435 30.8289 32.37809 31.293655 35.166634 28.96987 31.603495
29.744465 30.673979 31.913332 8.2107115 31.293655 29.589546 30.983818 3.718058
28.350193 24.787054 8.365631 34.237118 30.209223 31.448574 26.801003 30.673979
30.673979 33.307606 34.237118 24.012459 29.124788 9.295145 29.589546 29.744465
30.054302 30.983818 29.434628 30.673979 29.744465 30.983818 20.604239 30.983818
28.81495 29.434628 29.899384 4.337734 8.055793 36.405987 31.293655 19.209967
29.589546 30.51906 28.505112 34.392036 31.758413 13.013204 31.448574 29.744465
28.81495 31.293655 39.19453 29.589546 31.603495 31.138737 30.673979 28.96987
30.8289 31.913332 30.8289 39.504368 28.505112 28.505112 33.152683 33.77236
28.66003 29.279707 31.293655 32.37809 35.011715 33.307606 31.603495 20.604239
20.44932 27.885435 29.589546 30.209223 21.688673 30.673979 31.913332 31.603495
28.96987 32.068253 24.012459 25.871489 31.293655 30.983818 29.899384 30.673979
31.603495 31.448574 31.448574 30.209223 29.744465 28.350193 7.126278 28.505112
24.477217 36.25107 25.40673 31.138737 30.51906 10.379579 31.603495 10.06974
31.293655 32.53301 31.293655 30.054302 30.8289 32.22317 31.448574 19.674725
2.6336246 32.842846 19.364885 27.42068 31.448574 31.603495 26.801003 31.603495
32.842846 26.646084 8.675468 30.983818 30.983818 31.603495 29.434628 31.293655
29.124788 31.448574 30.8289 30.673979 31.448574 31.293655 29.744465 34.237118
30.364141 29.589546 29.279707 17.970613 30.51906 23.70262 30.983818 31.293655
30.8289 30.673979 32.22317 9.759903 30.054302 11.77385 3.4082198 31.758413
00000000: 4c4b 4a50 44c8 674d 214e 3844 534f 49b6
00000010: 4c4f 34ad 4a4c 4349 5559 3948 5f51 3c3f
00000020: 4c47 5874 3fb0 a04b 598e 4d48 3d4b ec97
00000030: a54c 6438 4b4b 5150 0e44 ac3a 884a 4798
00000040: 4e4b 2e5d 4a50 ab4b 464c 3c4a 333c 9b4c
00000050: 524d 3a5b 4949 9d58 4848 4f9a 4ba3 4ca7
00000060: 4634 4751 4a63 3b4c 4046 4eb5 4a3f 4898
00000070: 3720 b65d 434b 2d46 4657 5d1b 3cbc 3f40
00000080: 4248 3e46 4048 0548 3a3e 419c b46b 4afc
00000090: 3f45 385e 4dd4 4b40 3a4a 7d3f 4c49 463b
000000a0: 474e 477f 3838 565a 393d 4a51 6257 4c05
000000b0: 0434 3f43 0c46 4e4c 3b4f 1b27 4a48 4146
000000c0: 4c4b 4b43 4037 ae38 1e6a 2449 45c3 4cc1
000000d0: 4a52 4a42 4750 4bff 9154 fd31 4b4c 2d4c
000000e0: 542c b848 484c 3e4a 3c4b 4746 4b4a 405d
000000f0: 443f 3df4 4519 484a 4746 50bf 42cc 964d

tfl.pseudo_qconst13 i1 [256, 63] scale=0.023656152 zero_point=0
-0.07096846 0.047312304 -0.07096846 -0.14193691 0.07096846 -0.023656152 0.0 -0.07096846
-0.023656152 -0.11828076 0.023656152 0.07096846 0.023656152 -0.09462461 0.09462461 0.023656152
-0.09462461 -0.07096846 0.023656152 -0.023656152 -0.07096846 0.09462461 -0.09462461 0.07096846
-0.09462461 0.09462461 -0.09462461 0.023656152 -0.047312304 0.14193691 0.07096846 -0.07096846
0.047312304 -0.11828076 0.09462461 0.0 0.0 -0.11828076 0.047312304 0.09462461
0.0 0.11828076 0.047312304 -0.023656152 -0.11828076 0.07096846 0.11828076 0.11828076
-0.11828076 -0.07096846 0.023656152 -0.09462461 -0.047312304 -0.047312304 0.047312304 0.023656152
-0.023656152 -0.09462461 -0.023656152 -0.11828076 -0.09462461 -0.047312304 0.09462461 0.11828076
0.09462461 -0.07096846 -0.023656152 0.0 0.09462461 -0.11828076 -0.07096846 -0.07096846
-0.07096846 -0.09462461 -0.047312304 0.047312304 -0.047312304 0.07096846 -0.07096846 -0.09462461
0.023656152 0.09462461 -0.11828076 0.0 -0.14193691 -0.09462461 0.047312304 -0.023656152
0.023656152 0.047312304 -0.07096846 0.09462461 0.0 -0.07096846 0.09462461 -0.14193691
0.11828076 0.07096846 -0.11828076 0.047312304 -0.09462461 0.11828076 -0.047312304 0.023656152
0.047312304 -0.07096846 -0.07096846 0.11828076 0.09462461 -0.07096846 -0.14193691 -0.023656152
0.047312304 0.023656152 0.07096846 0.0 0.07096846 -0.11828076 0.047312304 0.047312304
-0.023656152 -0.023656152 0.09462461 0.0 -0.047312304 -0.11828076 0.09462461 -0.09462461
0.07096846 -0.14193691 -0.14193691 0.09462461 -0.07096846 0.07096846 0.0 -0.07096846
-0.023656152 0.07096846 -0.07096846 0.07096846 -0.09462461 0.07096846 0.0 0.0
0.047312304 0.09462461 0.0 -0.07096846 -0.09462461 0.14193691 -0.023656152 -0.09462461
0.047312304 0.09462461 0.047312304 -0.07096846 -0.09462461 0.07096846 0.07096846 -0.047312304
-0.14193691 -0.023656152 -0.047312304 0.07096846 -0.07096846 -0.14193691 -0.023656152 0.07096846
-0.09462461 -0.07096846 0.09462461 0.11828076 -0.047312304 0.047312304 0.047312304 0.023656152
-0.11828076 -0.07096846 -0.023656152 -0.047312304 -0.07096846 0.047312304 -0.023656152 -0.047312304
0.0 -0.047312304 0.047312304 -0.11828076 0.07096846 -0.14193691 -0.11828076 -0.047312304
0.023656152 -0.047312304 0.28387383 -0.14193691 -0.07096846 0.047312304 -0.023656152 0.023656152
0.23656152 -0.14193691 -0.14193691 0.21290538 0.023656152 -0.047312304 0.023656152 -0.047312304
-0.047312304 -0.09462461 0.0 -0.023656152 -0.07096846 -0.21290538 0.18924922 -0.023656152
0.0 -0.18924922 -0.11828076 0.047312304 -0.14193691 -0.047312304 0.07096846 -0.047312304
0.047312304 -0.047312304 -0.047312304 0.18924922 -0.14193691 0.0 0.07096846 0.023656152
0.07096846 -0.023656152 -0.14193691 -0.16559306 0.023656152 -0.16559306 -0.26021767 -0.09462461
0.0 -0.14193691 0.07096846 -0.023656152 0.047312304 0.07096846 -0.07096846 0.0
-0.023656152 0.023656152 0.023656152 0.07096846 0.0 0.023656152 -0.09462461 0.047312304
00000000: fd02 fdfa 03ff 00fd fffb 0103 01fc 0401
00000010: fcfd 01ff fd04 fc03 fc04 fc01 fe06 03fd
00000020: 02fb 0400 00fb 0204 0005 02ff fb03 0505
00000030: fbfd 01fc fefe 0201 fffc fffb fcfe 0405
00000040: 04fd ff00 04fb fdfd fdfc fe02 fe03 fdfc
00000050: 0104 fb00 fafc 02ff 0102 fd04 00fd 04fa
00000060: 0503 fb02 fc05 fe01 02fd fd05 04fd faff
00000070: 0201 0300 03fb 0202 ffff 0400 fefb 04fc
00000080: 03fa fa04 fd03 00fd ff03 fd03 fc03 0000
00000090: 0204 00fd fc06 fffc 0204 02fd fc03 03fe
000000a0: faff fe03 fdfa ff03 fcfd 0405 fe02 0201
000000b0: fbfd fffe fd02 fffe 00fe 02fb 03fa fbfe
000000c0: 01fe 0cfa fd02 ff01 0afa fa09 01fe 01fe
000000d0: fefc 00ff fdf7 08ff 00f8 fb02 fafe 03fe
000000e0: 02fe fe08 fa00 0301 03ff faf9 01f9 f5fc
000000f0: 00fa 03ff 0203 fd00 ff01 0103 0001 fc02
